model_policy.pt (torch_old, 80984 bytes, 6 tensors)

L1.weight f4 [128, 24]
0.20219539 -0.15152712 -0.098395996 0.25681633 -0.21082272 -0.25454575 -0.11111794 0.18714237
0.0962876 -0.20375942 -0.118878394 -0.1005796 -0.39742976 -0.05479794 0.052987836 -0.14609765
-0.021451592 0.062699474 -0.16804305 0.11108349 -0.28050932 -0.36212373 -0.049694505 0.3518903
0.13466737 0.047800094 -0.08466719 0.14445023 0.3759175 -0.04866313 -0.02899093 0.18160158
0.08312824 0.042221516 0.231901 -0.06551803 0.0039593014 -0.18563633 0.005896503 -0.062575616
-0.2383501 0.025087401 0.1627234 0.015497748 0.18611443 -0.32275325 0.10623493 -0.050099283
0.113721356 -0.4363726 -0.020677848 -0.0032324148 -0.2536138 -0.13519494 0.19474703 -0.27309513
0.12905395 -0.4752909 0.06560724 0.058925193 -0.17922029 -0.19253533 0.05247069 0.26828548
0.15349256 -0.11977269 0.0068827937 0.16821834 -0.12766941 -0.093655586 -0.10433178 0.18923992
-0.063560314 0.1282412 0.10756401 0.3398846 -0.0009002266 0.26086888 0.14810157 0.29041037
0.079167634 0.29896972 -0.037692837 0.042000897 -0.0097079985 0.030789752 0.03801291 0.19504525
0.13282225 0.33917442 0.10996329 -0.05307952 0.042492535 0.28922865 -0.13977322 -0.022427836
-0.34017935 0.49469584 0.00017761877 -0.2027159 -0.32894573 -0.32632202 0.14373055 -0.13483107
0.027135499 0.49207017 0.030368512 -0.26411933 0.04990897 -0.531526 -0.02227567 -0.21467598
0.044089817 0.31147704 -0.12056528 0.08873491 -0.10880533 -0.5039703 -0.0002849909 -0.043376263
0.3849059 -0.13788755 0.0062871478 -0.14958099 -0.28297448 0.003933816 0.18632644 -0.34673524
0.055807196 -0.20895356 -0.07424494 -0.07587583 -0.19939592 0.24779469 0.103228204 -0.30797663
0.21481599 0.043193106 -0.11017466 -0.043225527 -0.42698196 0.41868058 0.1268285 -0.19289228
0.024653716 0.21809447 -0.07018811 0.10709931 -0.055616546 0.080041304 0.0658785 -0.13869189
0.22332107 0.19689098 0.065781176 -0.31338117 -0.2342601 0.012556098 0.04055103 -0.32668355
0.19106987 -0.022629239 0.018814238 -0.5344314 -0.2545406 0.245766 -0.14926186 -0.1716771
-0.02466254 0.5836593 0.031851795 -0.040905546 0.24177298 -0.12009274 0.18232414 0.3252416
0.08375186 0.05022088 0.17487478 -0.22569136 0.13853773 0.16146377 -0.018741602 -0.21963388
0.049504213 -0.107355945 -0.20712465 -0.35044077 0.34426862 0.13596426 0.11405789 -0.2753536
0.23929617 -0.23359498 -0.0044304347 -0.17555857 -0.018463641 0.107270814 -0.14546466 -0.12903972
0.25795925 -0.21821122 0.09564907 0.26322016 0.16545735 -0.29364172 0.07708875 0.26552302
0.39856225 -0.52570426 0.037747744 0.13141412 -0.032962967 -0.21497795 -0.021001752 0.14523485
-0.09800374 -0.55491126 0.050278246 -0.10832712 -0.30395702 -0.44878787 -0.09770548 -0.069935754
0.16486984 -0.5670296 -0.15658112 0.14741749 -0.09535773 -0.28510278 0.08861462 -0.04354178
-0.09980067 -0.35798204 0.0590731 -0.023571838 -0.33515686 -0.4940948 -0.17991665 0.22419578
0.18538502 0.4708793 0.062796205 0.074380115 -0.1801051 0.1543636 -0.08192064 0.058165815
-0.03223751 0.23997444 -0.12006282 0.022172788 0.040060338 0.008859628 -0.09177087 0.34344316
00000000: 4f0c 4f3e ed29 1bbe d783 c9bd 6e7d 833e
00000010: e9e1 57be d253 82be cd91 e3bd 40a2 3f3e
00000020: 6f32 c53d 4fa6 50be 8476 f3bd adfc cdbd
00000030: ea7b cbbe ce73 60bd c609 593d 9f9a 15be
00000040: 40bb afbc 9568 803d 7a13 2cbe be7f e33d
00000050: eb9e 8fbe 4868 b9be 778c 4bbd f72a b43e
00000060: 3ee6 093e 08ca 433d fe65 adbd c3ea 133e
00000070: 4278 c03e fd52 47bd 637e edbc c4f5 393e
00000080: 243f aa3d 78f0 2c3d 7577 6d3e 512e 86bd
00000090: 07bd 813b 7317 3ebe 7437 c13b a527 80bd
000000a0: 0c12 74be 1884 cd3c f7a0 263e 44ea 7d3c
000000b0: c894 3e3e ea3f a5be b391 d93d e834 4dbd
000000c0: bee6 e83d 3b6c dfbe 9764 a9bc ecd6 53bb
000000d0: abd9 81be 8b70 0abe c46b 473e 20d3 8bbe
000000e0: b826 043e 5459 f3be 175d 863d 8b5b 713d
000000f0: 8685 37be fb27 45be 82eb 563d b75c 893e
00000100: 272d 1d3e 624b f5bd 0f89 e13b 6e41 2c3e
00000110: c5bb 02be 80ce bfbd e6ab d5bd 1cc8 413e
00000120: e92b 82bd a951 033e 854a dc3d 5b05 ae3e
00000130: 2ffd 6bba 9b90 853e f0a7 173e abb0 943e
00000140: a422 a23d 8f12 993e ce63 1abd 2209 2c3d
00000150: 4c0e 1fbc ca3a fc3c 6db3 1b3d f1b9 473e
00000160: 8e02 083e 45a8 ad3e 6f34 e13d e969 59bd
00000170: a70c 2e3d c715 943e b620 0fbe 95ba b7bc
00000180: fd2b aebe c648 fd3e 2d3f 3a39 c294 4fbe
00000190: 936b a8be ae13 a7be 1a2e 133e 2811 0abe
000001a0: 444b de3c 9ff0 fb3e 63c7 f83c a63a 87be
000001b0: 596d 4c3d 1712 08bf 777b b6bc 05d4 5bbe
000001c0: 8697 343d eb79 9f3e eeea f6bd a6ba b53d
000001d0: 54d5 debd 3304 01bf d56a 95b9 4fab 31bd
000001e0: 6312 c53e 6532 0dbe 6b04 ce3b c22b 19be
000001f0: 08e2 90be 3ee7 803b 5ccc 3e3e 4887 b1be
00000200: 1696 643d ecf7 55be bb0d 98bd ca64 9bbd
00000210: 722e 4cbe e4bd 7d3e 4f69 d33d 1daf 9dbe
00000220: b9f8 5b3e 41eb 303d 41a3 e1bd 400d 31bd
00000230: 619d dabe 4d5d d63e 55df 013e 8e85 45be
00000240: 97f6 c93c 2854 5f3e c9be 8fbd e256 db3d
00000250: 2dce 63bd b2ec a33d 4feb 863d 3f05 0ebe
00000260: 47ae 643e ca9d 493e 48b8 863d 7f73 a0be
00000270: e1e1 6fbe 18b8 4d3c d618 263d 1143 a7be
00000280: d2a7 433e f460 b9bc 5120 9a3c 7fd0 08bf
00000290: 2553 82be 15aa 7b3e 1ad8 18be 1fcc 2fbe
000002a0: 1809 cabc b26a 153f 0777 023d 938c 27bd
000002b0: 5693 773e 2ff3 f5bd 2eb3 3a3e 1186 a63e
000002c0: 1886 ab3d 69b4 4d3d 6012 333e a31b 67be
000002d0: d6dc 0d3e c256 253e fd87 99bc b4e7 60be
000002e0: eec4 4a3d 6fdd dbbd 7c18 54be f96c b3be
000002f0: fa43 b03e 373a 0b3e 2f97 e93d 26fb 8cbe
00000300: 0e0a 753e 8633 6fbe 2e2d 91bb a0c5 33be
00000310: 1041 97bc cdb0 db3d b0f4 14be fd22 04be
00000320: 3c13 843e c372 5fbe a9e3 c33d cbc4 863e
00000330: a76d 293e 3558 96be b5e0 9d3d a2f2 873e
00000340: 5a10 cc3e 8e94 06bf 619d 1a3d 6c91 063e
00000350: 2d04 07bd 2e23 5cbe de0b acbc 72b8 143e
00000360: 2fb6 c8bd aa0e 0ebf 90f0 4d3d 9cda ddbd
00000370: 41a0 9bbe 86c7 e5be d019 c8bd 7a3a 8fbd
00000380: a4d3 283e da28 11bf cd56 20be 9cf4 163e
00000390: ea4a c3bd fef8 91be 957b b53d de58 32bd
000003a0: 4b64 ccbd 6c49 b7be a3f6 713d ba19 c1bc
000003b0: ae99 abbe fef9 fcbe 123c 38be 9493 653e
000003c0: 92d5 3d3e 1717 f13e 4c9b 803d 9a54 983d
000003d0: 796d 38be 7e11 1e3e 02c6 a7bd 473f 6e3d
000003e0: 7b0b 04bd dcbb 753e 7fe3 f5bd b5a3 b53c
000003f0: 4f16 243d f927 113c 5ef2 bbbd c8d7 af3e

L1.bias f4 [128]
-0.23361601 -0.011912278 0.001666496 -0.13909525 -0.10289298 -0.1689379 -0.14560793 0.29241136
0.0874618 0.14033847 -0.063298754 -0.12159242 -0.3431521 -0.15192884 0.06844423 -0.22575796
0.058854725 0.15915664 0.10231453 -0.0799016 -0.27649316 -0.10863982 -0.22087584 0.0960599
-0.19692084 0.12954926 0.0027353673 -0.023438536 0.113385014 0.13509326 0.0957834 0.029777909
0.05658311 0.1518842 0.0534407 -0.020197455 -0.2584309 0.008000086 -0.13086733 -0.1684525
-0.20919357 0.027314195 0.023974093 0.15376075 -0.1383763 -0.34528306 0.005878257 -0.2440945
0.014006148 -0.14023948 -0.037218414 -0.271591 -0.18473943 0.07514934 -0.19922781 0.041120525
0.16390158 0.20842549 0.052142743 0.055091314 -0.21496311 0.038130425 0.016664324 -0.12374735
-0.105682105 -0.023528647 -0.25452045 0.0076090745 0.063401684 -0.051319003 -0.15664898 -0.22386031
0.07415531 0.1510969 0.02726097 -0.1963875 -0.17411903 -0.11065715 0.109164536 0.025823444
-0.25122693 0.114780165 0.008006442 -0.09721939 0.2543492 -0.012553244 0.008323044 0.013657145
0.20936075 -0.019678334 0.19511208 -0.12477521 0.09455615 -0.341175 -0.076986335 -0.22202861
-0.16429143 -0.26757967 -0.18673019 -0.19230801 0.08249446 0.13518853 -0.018179009 0.07848695
-0.15818088 -0.01726715 0.028512504 0.0108945975 -0.21190193 -0.1006782 0.07765592 -0.21156089
-0.14699358 -0.06481729 -0.0012717397 -0.1710709 -0.15382828 -0.05546977 -0.31874883 -0.068443805
-0.042295694 -0.35460192 -0.036614228 -0.20844802 0.021822058 0.135775 0.1309871 -0.29448983
00000000: 0939 6fbe b72b 43bc 546e da3a fc6e 0ebe
00000010: 8eb9 d2bd 0ffe 2cbe 3f1a 15be f1b6 953e
00000020: 2c1f b33d e3b4 0f3e c7a2 81bd 7205 f9bd
00000030: a2b1 afbe 3c93 1bbe 7d2c 8c3d 182d 67be
00000040: a711 713d f5f9 223e 488a d13d 73a3 a3bd
00000050: 8390 8dbe 8e7e debd 472d 62be 0ebb c43d
00000060: 9ea5 49be 90a8 043e d943 333b 2c02 c0bc
00000070: 6736 e83d e355 0a3e 162a c43d cdf0 f33c
00000080: b1c3 673d 8887 1b3e a3e4 5a3d 2275 a5bc
00000090: 0e51 84be cb12 033c 1602 06be d07e 2cbe
000000a0: d736 56be 05c2 df3c 5165 c43c 7573 1d3e
000000b0: 84b2 0dbe f1c8 b0be 659e c03b e9f3 79be
000000c0: 0b7a 653c f09a 0fbe 5672 18bd fa0d 8bbe
000000d0: 552c 3dbe e6e7 993d 6002 4cbe ff6d 283d
000000e0: d1d5 273e 7e6d 553e a193 553d 6ea7 613d
000000f0: 4a1f 5cbe a62e 1c3d 9f83 883c 406f fdbd
00000100: dc6f d8bd 26bf c0bc 8150 82be 8b55 f93b
00000110: bed8 813d e033 52bd 9768 20be a33b 65be
00000120: bdde 973d 25b9 1a3e 6652 df3c ce19 49be
00000130: 424c 32be 37a0 e2bd a891 df3d b08b d33c
00000140: d1a0 80be dd11 eb3d 742d 033c f61a c7bd
00000150: 0f3a 823e 1fac 4dbc 605d 083c 38c2 5f3c
00000160: aa62 563e 7534 a1bc 76cb 473e 258a ffbd
00000170: a8a6 c13d 7dae aebe 03ab 9dbd 785b 63be
00000180: 033c 28be 3400 89be 3336 3fbe 64ec 44be
00000190: dbf2 a83d dd6e 0a3e 25ec 94bc c4bd a03d
000001a0: 2bfa 21be d773 8dbc 0e93 e93c 417f 323c
000001b0: d2fc 58be 5f30 cebd 110a 9f3d 6ba3 58be
000001c0: 7c85 16be edbe 84bd 81b0 a6ba 362d 2fbe
000001d0: 2985 1dbe 4534 63bd 0c33 a3be 442c 8cbd
000001e0: 403e 2dbd 628e b5be cdf8 15bd 6673 55be
000001f0: 2cc4 b23c 9a08 0b3e 7b21 063e 5fc7 96be

L2.weight f4 [128, 128]
-0.026406756 -0.141082 -0.09550822 0.15079407 0.113111235 0.05277888 -0.2586726 -0.11131944
0.07182376 0.19554737 0.04636 0.013671051 -0.05056178 0.023887573 0.17995436 -0.3000149
-0.2292384 0.1939207 -0.11033287 -0.1020827 -0.18452665 0.06036753 -0.16805646 -0.19847827
0.054636616 -0.07011992 0.079134196 0.13637732 0.12071992 -0.069353126 0.025360987 0.0468378
-0.024502173 -0.019551763 -0.0028122992 -0.045222174 0.048277248 0.08864438 -0.033176616 -0.24103117
-0.093455315 -0.018511992 0.11514113 -0.15505715 -0.0834679 -0.113708176 -0.13956138 -0.12872282
0.0035877924 0.041968375 -0.26132017 -0.088482834 -0.07883775 -0.10483245 0.13132124 -0.051647827
0.167906 -0.082448676 -0.2700906 0.04209016 -0.0056181857 -0.16038482 -0.24160874 -0.10244661
-0.123499826 -0.11490311 -0.040191017 0.15190323 -0.08821055 -0.011282517 -0.057042636 -0.1655877
-0.065317206 -0.0013824548 -0.37554318 0.02776769 0.10049185 -0.05695921 -0.06325671 -0.13720538
-0.15457912 -0.36511946 -0.16644774 -0.2223697 -0.2001872 0.039352708 -0.036135018 0.022028262
-0.23098564 -0.1525768 0.1575116 0.11644968 -0.14804895 -0.113980174 0.013107917 -0.1558539
-0.02114151 0.06434545 0.00820824 -0.1391748 0.02978187 -0.011573225 -0.06341735 0.3113738
-0.019679371 0.06798591 -0.09376022 0.21885878 0.07421747 -0.0829889 0.258323 0.06601746
0.15729699 0.06979558 0.057150114 -0.015831532 -0.14744617 0.12003223 -0.08834136 -0.12003151
-0.14913775 -0.028638704 -0.104405925 -0.07441099 -0.10194516 -0.0761067 0.032212865 -0.0133373495
0.027786523 -0.120601684 0.038526062 -0.013994697 -0.022223474 -0.047938548 0.016622791 0.031135522
-0.044650078 -0.012100095 0.024871293 -0.009832099 0.036505193 -0.05701555 -0.10407697 -0.019968951
-0.09826336 -0.032875005 -0.035813436 -0.06812196 -0.02509198 -0.019818535 -0.12919824 -0.057300888
0.068650745 -0.048031207 -0.027423343 -0.015962418 0.05546832 -0.19621918 -0.09965065 0.02573516
0.09094823 0.08673056 -0.013343205 0.072480746 0.10117187 -0.03556994 0.04586746 -0.06509288
0.109612994 -0.055834193 0.009750856 -0.06838156 0.009917548 -0.023626128 -0.03095122 0.052363172
0.024779709 -0.16147922 0.011526941 0.052156292 -0.023340957 -0.10132711 0.047036767 0.07221988
-0.052224044 -0.063956566 0.0206365 0.07673506 -0.10414384 -0.07198142 0.008397026 -0.026779145
-0.09421427 -0.17445014 -0.015938299 -0.003817356 -0.12120187 0.016696878 0.010749568 0.11530166
-0.06996352 0.07071403 0.028154442 -0.009793911 -0.07748978 -0.052699722 -0.07427357 0.032645505
-0.12045016 -0.067261934 -0.12671931 0.030523507 -0.105599515 -0.075164594 -0.021201655 0.07309612
-0.04408118 -0.04173325 0.09457892 0.06354882 -0.05796764 -0.08223243 0.07027795 -0.024805
-0.0065104486 0.023938766 -0.08847482 0.028107604 -0.012811914 0.046454582 -0.09487315 -0.086691886
0.005901395 0.04296611 -0.06851678 -0.058200482 -0.06362758 -0.032837957 -0.12554969 0.040456608
-0.039373897 -0.05020245 -0.08813349 0.014209422 -0.06819081 0.025743613 0.071306065 -0.089809224
-0.014102485 -0.08936051 0.029485816 -0.023780694 -0.028839609 -0.104890265 -0.070948705 -0.047745682
00000000: fb52 d8bc cd77 10be d099 c3bd c369 1a3e
00000010: dda6 e73d ab2e 583d bc70 84be 72fb e3bd
00000020: 5618 933d 923d 483e fce3 3d3d 8bfc 5f3c
00000030: de19 4fbd dfaf c33c f545 383e 8e9b 99be
00000040: 79bd 6abe 2693 463e 33f6 e1bd bc10 d1bd
00000050: 8ef4 3cbe f143 773d fe16 2cbe e33d 4bbe
00000060: a5ca 5f3d 089b 8fbd 1c11 a23d 7fa6 0b3e
00000070: 013c f73d 0309 8ebd d8c1 cf3c fed8 3f3d
00000080: c8b8 c8bc 052b a0bc 8d4e 38bb e33a 39bd
00000090: 5dbe 453d 2f8b b53d 34e4 07bd e0d0 76be
000000a0: 8065 bfbd 76a6 97bc 1dcf eb3d 4dc7 1ebe
000000b0: 38f1 aabd d5df e8bd 2ee9 0ebe eacf 03be
000000c0: 2b21 6b3b 08e7 2b3d c2cb 85be 7d36 b5bd
000000d0: b075 a1bd 65b2 d6bd 1379 063e ac8c 53bd
000000e0: 8def 2b3e dada a8bd 5149 8abe bb66 2c3d
000000f0: c218 b8bb eb3b 24be 4868 77be 87cf d1bd
00000100: 7aed fcbd 5252 ebbd 569f 24bd 858c 1b3e
00000110: bca7 b4bd 4eda 38bc 8aa5 69bd d28f 29be
00000120: 07c5 85bd 7c33 b5ba 3247 c0be 1179 e33c
00000130: acce cd3d 104e 69bd bc8c 81bd 917f 0cbe
00000140: fd49 1ebe f0f0 babe 4771 2abe e2b4 63be
00000150: e0fd 4cbe 4e30 213d 5002 14bd 9d74 b43c
00000160: 8087 6cbe 183d 1cbe b94a 213e 2b7d ee3d
00000170: 259a 17be 706e e9bd 97c2 563c 2a98 1fbe
00000180: f630 adbc 8cc7 833d db7b 063c d783 0ebe
00000190: 1cf9 f33c a09d 3dbc f5e0 81bd 636c 9f3e
000001a0: a236 a1bc 323c 8b3d 5c05 c0bd 841c 603e
000001b0: 54ff 973d 16f6 a9bd ea42 843e 2934 873d
000001c0: 7612 213e fcf0 8e3d 3d16 6a3d 21b1 81bc
000001d0: 21fc 16be 75d3 f53d 51ec b4bd 15d3 f5bd
000001e0: 91b7 18be b79b eabc c6d2 d5bd ca64 98bd
000001f0: a0c8 d0bd d4dd 9bbd a3f1 033d e684 5abc
00000200: 90a0 e33c 04fe f6bd 81cd 1d3d 034a 65bc
00000210: 010e b6bc 365b 44bd 852c 883c ec0f ff3c
00000220: 00e3 36bd 7a3f 46bc e2be cb3c d016 21bc
00000230: 7886 153d 2389 69bd 4e26 d5bd ed95 a3bc
00000240: 4d3e c9bd f1a7 06bd 1cb1 12bd 8783 8bbd
00000250: b28d cdbc 7b5a a2bc 8b4c 04be 56b4 6abd
00000260: c398 8c3d 5fbc 44bd eba6 e0bc 9ec3 82bc
00000270: c032 633d aeed 48be a415 ccbd 8bd2 d23c
00000280: 1143 ba3d cb9f b13d 759d 5abc c970 943d
00000290: 3333 cf3d c9b1 11bd 85df 3b3d 6a4f 85bd
000002a0: c77c e03d 65b2 64bd 0ec2 1f3c a20b 8cbd
000002b0: 367d 223c 958b c1bc 6a8d fdbc c47a 563d
000002c0: d1fe ca3c cf5a 25be 7fdb 3c3c d6a1 553d
000002d0: 8935 bfbc 9684 cfbd a0a9 403d 04e8 933d
000002e0: e1e8 55bd a9fb 82bd e10d a93c 4527 9d3d
000002f0: 5e49 d5bd ff6a 93bd ae93 093c f05f dbbc
00000300: 69f3 c0bd 0fa3 32be 0991 82bc 9b2c 7abb
00000310: b038 f8bd e4c7 883c f51e 303c 4723 ec3d
00000320: 0949 8fbd 84d2 903d 25a4 e63c a476 20bc
00000330: f6b2 9ebd aadb 57bd be1c 98bd 4bb7 053d
00000340: 93ae f6bd a0c0 89bd b5c2 01be 6f0c fa3c
00000350: 8f44 d8bd e5ef 99bd 18af adbc 6bb3 953d
00000360: 788e 34bd 7cf0 2abd 98b2 c13d e225 823d
00000370: 7a6f 6dbd 7a69 a8bd e3ed 8f3d db33 cbbc
00000380: 9a55 d5bb 3b1b c43c 4932 b5bd eb41 e63c
00000390: 10e9 51bc 2947 3e3d db4c c2bd 848b b1bd
000003a0: 7d60 c13b 3bfd 2f3d 8752 8cbd a163 6ebd
000003b0: 2d4f 82bd 1881 06bd 1990 00be d4b5 253d
000003c0: 8646 21bd 16a1 4dbd 557f b4bd a3ce 683c
000003d0: a0a7 8bbd 45e4 d23c ea08 923d e6ed b7bd
000003e0: 1c0e 67bc a502 b7bd 3d8c f13c bbcf c2bc
000003f0: 0b41 ecbc b5d0 d6bd 8e4d 91bd fa90 43bd

L2.bias f4 [128]
-0.030612329 -0.032205593 -0.1581071 -0.063276105 0.09421769 0.021861065 -0.058353025 -0.04953
-0.002504119 -0.03955632 -0.037589196 0.019340476 0.021638067 0.03812579 0.08062123 -0.0010609714
0.008904312 -0.00059928675 -0.024474803 0.036589302 -0.12650682 -0.049705755 0.016506672 0.07821332
0.07569912 0.0700814 -0.14739668 -0.06877232 -0.051894493 0.03867682 -0.031553585 0.055707067
-0.043304667 0.050715905 -0.032642875 -0.10273729 0.05131875 -0.0005476819 -0.019044323 -0.07594055
-0.03798216 -0.13266408 -0.108850144 0.060545113 -0.01191791 -0.076651394 -0.09772949 -0.04211525
4.10419e-05 0.027481006 -0.026800247 -0.11534722 -0.014113655 0.013071059 0.021916866 -0.0535265
0.040110905 -0.022195067 -0.04379412 0.10405486 -0.15977442 0.029004496 -0.027470708 -0.030162886
0.0657242 0.020730745 -0.20675153 0.0073780688 -0.057215888 0.084823914 0.010195894 -0.06038017
-0.022011649 0.008663536 0.1267929 0.043540917 -0.04692516 -0.03662716 -0.059237283 -0.019954244
-0.02236842 0.005691011 -0.015691793 0.0689428 -0.0455597 0.130064 0.056286667 -0.06021322
-0.16722767 -0.07771467 0.038993873 0.004314575 -0.051311277 0.13984236 -0.03815781 -0.09744821
-0.07519362 0.07363023 -0.07618567 -0.102037095 -0.0602401 0.03398317 -0.1251641 -0.14465278
-0.024034984 0.024497773 0.032510735 -0.06306893 0.052989647 -0.04931835 -0.07120428 0.039487984
-0.03102878 -0.015634647 -0.014374323 -0.019324552 0.05343255 -0.0032715173 -0.1021831 -0.012021747
-0.08854632 -0.037849568 -0.04946733 -0.028779548 -0.056105867 0.04844147 -0.04971469 -0.05663617
00000000: b5c6 fabc 03ea 03bd d4e6 21be e796 81bd
00000010: 34f5 c03d fa15 b33c 9503 6fbd f8df 4abd
00000020: 251c 24bb cf05 22bd 21f7 19bd eb6f 9e3c
00000030: 5142 b13c ca29 1c3d be1c a53d 4b10 8bba
00000040: 64e3 113c 7419 1dba 627f c8bc aade 153d
00000050: 018b 01be 4398 4bbd 0039 873c 4e2e a03d
00000060: 2408 9b3d d686 8f3d 28ef 16be 81d8 8cbd
00000070: 528f 54bd 966b 1e3d 553e 01bd 182d 643d
00000080: 3c60 31bd 7bbb 4f3d 89b4 05bd ee67 d2bd
00000090: 9c33 523d 4f92 0fba d702 9cbc b886 9bbd
000000a0: 2e93 1bbd 18d9 07be d3ec debd 27fe 773d
000000b0: 5643 43bc 68fb 9cbd 6626 c8bd 0a81 2cbd
000000c0: 6824 2c38 d91f e13c 318c dbbc 2a3b ecbd
000000d0: f63c 67bc ff27 563c 008b b33c 9a3e 5bbd
000000e0: 554b 243d 6ed2 b5bc 7761 33bd b71a d53d
000000f0: e89b 23be d69a ed3c 400a e1bc 2818 f7bc
00000100: 699a 863d 86d3 a93c acb6 53be bac3 f13b
00000110: 355b 6abd 29b8 ad3d ae0c 273c 3251 77bd
00000120: c651 b4bc 81f1 0d3c ffd5 013e f657 323d
00000130: 9934 40bd 5c06 16bd cba2 72bd 1577 a3bc
00000140: fa3d b7bc a97b ba3b 138c 80bc e231 8d3d
00000150: cf9c 3abd 7f2f 053e d98c 663d 23a2 76bd
00000160: bb3d 2bbe de28 9fbd 0ab8 1f3d 4761 8d3b
00000170: c62b 52bd d632 0f3e 5d4b 1cbd ed92 c7bd
00000180: 1dff 99bd 72cb 963d 3c07 9cbd d3f8 d0bd
00000190: 53be 76bd f031 0b3d 052b 00be dc1f 14be
000001a0: 04e5 c4bc 8eaf c83c fa29 053d 482a 81bd
000001b0: ac0b 593d 0a02 4abd 8dd3 91bd 27be 213d
000001c0: 1130 febc 3b14 80bc 4882 6bbc 864e 9ebc
000001d0: 17dc 5a3d f466 56bb 6045 d1bd ddf6 44bc
000001e0: c657 b5bd 2608 1bbd 419e 4abd 16c3 ebbc
000001f0: 44cf 65bd 906a 463d a1a1 4bbd 54fb 67bd

out.weight f4 [2, 128]
0.09550052 0.06670059 -0.033188213 -0.026813477 -0.097706266 -0.012109149 0.0050729136 -0.15310091
0.046391834 0.085008174 -0.039210767 0.032345135 -0.26253244 0.018757818 -0.15216161 -0.0069802525
-0.059588686 0.23095189 0.005099717 0.06825199 0.0073636747 -0.0054379664 -0.017579738 0.007110205
0.0935506 0.124716125 0.13969246 -0.2181585 0.053214274 0.096682474 -0.013257968 -0.08895609
-0.17108206 -0.019086625 0.47243366 0.018736284 -0.021305447 0.07193761 0.048736867 0.0052265762
0.03829285 0.14926176 0.11324446 0.05882289 -0.08237673 0.0001455601 0.06382778 0.012099557
0.06400532 0.039172772 -0.004967514 -0.013234186 -0.086349756 0.049612224 0.047618095 0.061834868
0.081247516 0.056606825 0.0019190224 0.20281309 0.025506802 -0.17203607 0.0005768818 0.012990822
0.0156306 0.017770898 -0.40837106 -0.013475836 -0.09730796 0.08622353 -0.07419961 0.09483943
0.049867515 0.086827256 -0.13073607 -0.01238818 -0.15375462 -0.04250371 0.027268386 0.012916905
-0.05284672 0.29675707 -0.14659147 0.09252839 0.106652305 0.08169579 0.03022026 -0.08293001
0.16499627 -0.06960137 -0.078042366 0.01686396 -0.12933935 0.052229945 -0.36727944 -0.030082392
0.029671459 0.05840246 0.3179848 -0.0017179619 0.05429233 0.08194308 -0.025668051 -0.08473703
-0.0020993878 0.023398248 0.26896504 -0.25473043 0.3164411 -0.005014225 0.02888017 0.030274177
-0.12669885 0.010426223 0.034062725 0.02419199 -0.009741517 -0.002419815 0.008412086 -0.044327393
-0.062549956 0.0059471987 -0.03971215 0.003698057 0.044416044 -0.0026061116 -0.06663493 0.024186146
0.091401055 -0.07200135 -0.06804184 0.49798673 0.19486904 0.077434815 -0.031307526 0.03869687
-0.07405918 -0.073726974 0.34108663 0.340258 0.14598791 0.5604538 0.1694633 -0.018108973
0.07810574 0.09732218 0.17606004 -0.120989084 -0.40334222 0.013029004 0.46275204 0.38786018
0.12010747 0.4561068 -0.12863825 0.44832528 -0.036050208 0.073776186 -0.3205677 -0.20265095
-0.029185915 0.009102601 0.0015495622 0.03574298 -0.16019584 0.0357639 -0.24320509 -0.16756718
0.2968822 0.40363833 -0.25966296 -0.09675784 -0.009142204 -0.00091829686 -0.24960656 -0.04151333
-0.010617362 -0.261449 -0.091220796 -0.26210222 0.123330034 -0.18443495 -0.08837412 -0.23485684
-0.2611185 0.041668642 -0.080943614 0.119999334 0.2568271 0.13014324 0.025728766 -0.08516537
0.18297298 -0.015736897 -0.1443106 -0.47263506 -0.15572968 -0.01218522 0.39174253 0.019198285
0.5136763 -0.23354934 0.0015054791 0.23978877 -0.21730666 -0.09538617 0.003574311 -0.34634414
0.25441965 0.14999413 -0.03989045 -0.017527275 -0.05866449 -0.047925998 -0.4233905 0.048870273
0.009723975 -0.0758601 -0.16967435 -0.07359325 0.28868678 -0.0058492203 -0.31554255 -0.08921086
0.022287067 -0.14586948 -0.10330448 -0.022182977 -0.0035532813 0.25841618 0.2161308 0.24816924
0.23596427 -0.03988588 0.31714153 -0.38268116 0.112089954 -0.06331645 -0.052711293 -0.051690973
0.23389792 0.49221644 -0.06121276 0.28127608 0.18834026 0.20941932 0.014431333 0.14829919
-0.01606258 -0.07197755 -0.3184093 -0.0910249 0.017985677 -0.2360674 0.49946004 -0.05948687
00000000: c795 c33d 529a 883d 5df0 07bd f0a7 dbbc
00000010: 391a c8bd 7465 46bc af3a a63b 7cc6 1cbe
00000020: 5d05 3e3d c418 ae3d 789b 20bd 557c 043d
00000030: a76a 86be ffa9 993c 41d0 1bbe 9aba e4bb
00000040: 4413 74bd a77e 6c3e 871b a73b b3c7 8b3d
00000050: fb4a f13b f830 b2bb 6203 90bc b9fc e83b
00000060: 7597 bf3d 2b6b ff3d 8a0b 0f3e f164 5fbe
00000070: 36f7 593d 7601 c63d f337 59bc 9c2e b6bd
00000080: 2330 2fbe 8e5b 9cbc d3e2 f13e d67c 993c
00000090: c388 aebc 0754 933d 4fa0 473d b343 ab3b
000000a0: f7d8 1c3d 13d8 183e b6ec e73d 45f0 703d
000000b0: 22b5 a8bd 7ea1 1839 24b8 823d 383d 463c
000000c0: 3915 833d a173 203d 87c6 a2bb 33d4 58bc
000000d0: 24d8 b0bd 3036 4b3d 310b 433d 8f46 7d3d
000000e0: 1965 a63d 8fdc 673d b587 fb3a 3cae 4f3e
000000f0: a4f3 d03c 392a 30be e239 173a 75d7 543c
00000100: be0b 803c 4694 913c 0316 d1be c1c9 5cbc
00000110: 6549 c7bd f695 b03d f7f5 97bd 2d3b c23d
00000120: e141 4c3d 7dd2 b13d addf 05be cbf7 4abc
00000130: da71 1dbe 5f18 2ebd f361 df3c 6da1 533c
00000140: cd75 58bd 8bf0 973e 131c 16be 867f bd3d
00000150: 866c da3d 1f50 a73d 7b90 f73c 36d7 a9bd
00000160: c8f4 283e 2a8b 8ebd add4 9fbd 4a26 8a3c
00000170: 8971 04be 11ef 553d 0d0c bcbe 596f f6bc
00000180: 8f11 f33c 6b37 6f3d e7ce a23e 3c2d e1ba
00000190: a261 5e3d c6d1 a73d ce45 d2bc 9c8a adbd
000001a0: e295 09bb afad bf3c c9b5 893e 076c 82be
000001b0: 9104 a23e 5e4e a4bb 1b96 ec3c 8d01 f83c
000001c0: 58bd 01be c0d2 2a3c 5b85 0b3d 482e c63c
000001d0: e29a 1fbc c295 1ebb d9d2 093c a490 35bd
000001e0: 311a 80bd b8e0 c23b 35a9 22bd 1a5b 723b
000001f0: 99ed 353d 4ccb 2abb e577 88bd 0622 c63c
00000200: 7a30 bb3d 7275 93bd 8559 8bbd 1ef8 fe3e
00000210: c08b 473e 2596 9e3d 523c 00bd 9c80 1e3d
00000220: 57ac 97bd 2bfe 96bd e8a2 ae3e 4c36 ae3e
00000230: db7d 153e e679 0f3f ca87 2d3e 4559 94bc
00000240: e7f5 9f3d da50 c73d 1549 343e 20c9 f7bd
00000250: df82 cebe 9b77 553c d6ed ec3e 9c95 c63e
00000260: e8fa f53d d586 e93e bfb9 03be e48a e53e
00000270: 62a9 13bd f817 973d 7321 a4be bb83 4fbe
00000280: 4d17 efbc 1323 153c ae1a cb3a 3b67 123d
00000290: 610a 24be 2b7d 123d c10a 79be bb96 2bbe
000002a0: f200 983e afa9 ce3e 8bf2 84be f928 c6bd
000002b0: 2fc9 15bc dcb9 70ba dd98 7fbe e209 2abd
000002c0: 72f4 2dbc a5dc 85be f8d1 babd 4332 86be
000002d0: 7594 fc3d 84dc 3cbe 7efd b4bd 507e 70be
000002e0: 53b1 85be bdac 2a3d c4c5 a5bd 36c2 f53d
000002f0: d77e 833e 4544 053e 22c5 d23c 2e6b aebd
00000300: 455d 3b3e aaea 80bc 28c6 13be 39fd f1be
00000310: 9a77 1fbe 84a4 47bc 7a92 c83e b945 9d3c
00000320: 4a80 033f 8f27 6fbe 7f53 c53a 308b 753e
00000330: a385 5ebe d359 c3bd fd3e 6a3b 0554 b1be
00000340: 4b43 823e 1098 193e 2b64 23bd 5c95 8fbc
00000350: 2d4a 70bd 0d4e 44bd a4c6 d8be 322c 483d
00000360: 4f51 1f3c 8a5c 9bbd 1dbf 2dbe 0fb8 96bd
00000370: c1ce 933e d1aa bfbb cb8e a1be 2fb4 b6bd
00000380: 5e93 b63c cf5e 15be 4d91 d3bd 13b9 b5bc
00000390: 2bde 68bb 204f 843e 6451 5d3e 1420 7e3e
000003a0: 9ea0 713e 605f 23bd 6060 a23e c9ee c3be
000003b0: 6b8f e53d 0eac 81bd cce7 57bd eab9 53bd
000003c0: f082 6f3e cb03 fc3e 3bba 7abd 6b03 903e
000003d0: 45dc 403e 0572 563e 6671 6c3c bedb 173e
000003e0: ac95 83bc f768 93bd 8b06 a3be 436b babd
000003f0: b356 933c a7bb 71be 3ab9 ff3e 81a8 73bd

out.bias f4 [2]
0.13427606 0.062393017
00000000: aa7f 093e d28f 7f3d
