model_qnet.pt (torch_old, 162661 bytes, 10 tensors)

L1.weight f4 [128, 26]
0.23104757 -0.16279456 -0.09497349 -0.02760483 0.13430482 0.17132768 0.07879098 -0.10245159
0.2622099 -0.34766743 0.06580486 0.1276022 -0.16080528 0.3126783 -0.0666524 -0.1409946
0.011675115 0.009809543 -0.00855915 -0.02378565 -0.48125422 0.17208861 0.0477325 0.08172242
0.26852027 -0.045018636 0.10614742 0.05993581 0.0862333 0.11277251 0.2302975 0.035201218
-0.09018685 -0.19850585 -0.035771556 0.04210741 0.028035305 -0.14358614 -0.00047477864 0.28210938
-0.01161648 -0.112405226 0.057472117 -0.077298835 -0.010757319 -0.10991262 -0.1252946 0.6057797
0.016487138 -0.055104192 0.09865041 -0.035740037 0.12560193 0.1280139 0.015135616 0.24668941
0.11323902 -0.301229 -0.05609517 0.030952437 0.31927103 0.055713434 -0.11463978 0.17770115
-0.10141148 -0.056345362 0.095698856 -0.065927275 0.45476407 -0.076398596 -0.031722423 -0.026833646
-0.028328504 -0.21724537 0.051284596 0.12605757 -0.35083765 0.018277558 -0.07941176 0.4801617
0.0018304731 -0.043240447 -0.020400902 0.011556039 0.020254146 -0.11354608 -0.16013855 0.40659097
-0.029161938 -0.0759511 -0.021605397 0.14157698 -0.024476677 0.006438618 0.13154066 0.31016994
-0.0097442325 0.108031645 0.2792173 -0.032620236 0.038069442 -0.09076195 0.5512711 -0.006709875
-0.02109144 -0.109416805 -0.060221132 0.1625515 -0.15677708 -0.23916934 0.051651303 0.14585726
0.14735274 0.1250499 -0.13382842 0.081889056 -0.06629369 -0.101670265 0.102370776 0.0060470677
0.18960781 -0.13694027 0.0057921526 -0.00926075 -0.20580663 0.17540479 -0.02642613 -0.15102173
0.15283337 -0.13647506 0.32111576 0.42106292 0.10027169 0.25896943 -0.26613578 0.112184145
-0.09212128 0.020167341 0.069857575 0.6395775 0.034411993 0.16399485 -0.13607886 0.04341766
0.0094382195 -0.0912206 0.19835635 0.6204179 0.080554366 0.071357906 0.047314186 0.11702964
-0.0395562 -0.002984621 0.12433693 -0.033968184 -0.15133174 -0.21944761 0.013472 0.09134098
-0.47979856 0.054656338 -0.020441381 -0.06597062 0.1328189 -0.1132379 0.13454527 0.09889941
-0.24013036 0.15033907 -0.15126139 -0.13703656 0.122835636 0.1748096 -0.038874734 -0.06454667
0.22243816 0.2744202 0.021597657 0.085604295 -0.4205503 -0.100535825 0.09714177 0.025240324
0.034623846 -0.14182992 0.07485696 0.101019315 -0.021523617 0.06135717 0.13792217 0.12846695
0.043950316 0.004214564 -0.14727946 0.29564914 -0.024133908 0.09254618 0.21481396 0.20490399
0.012049806 0.037535287 -0.08756074 0.46096933 0.03003809 0.15072158 1.3008144 0.026513454
0.15758279 -0.031434886 0.0928774 -0.15238969 -0.033902597 -0.45164636 -0.13635707 -0.08702033
0.15657622 0.056130942 0.06564298 -0.0025054982 -0.10004144 -0.42597526 -0.00957961 0.10392825
0.09098465 -0.30972743 0.109902605 -0.015283571 0.18416592 -0.8476555 -0.09434934 0.0492029
0.09687397 -0.20103256 -0.10113465 -0.3115768 -0.096359484 0.018311942 -0.18002364 -0.30867314
0.099676184 -0.19563809 -0.020509958 -0.19215123 0.017085187 -0.2984759 -0.09238211 0.11577191
-0.022688752 -0.156127 0.13330042 -0.38391045 0.08789556 0.20775877 0.062994406 0.27037102
00000000: bc97 6c3e 9eb3 26be 7681 c2bd 8623 e2bc
00000010: 3487 093e 8670 2f3e 2a5d a13d 24d2 d1bd
00000020: 6040 863e 7701 b2be b3c4 863d 27aa 023e
00000030: 24aa 24be 5f17 a03e 0e81 88bd e360 10be
00000040: fb48 3f3c 35b8 203c ad3b 0cbc 20da c2bc
00000050: f466 f6be ff37 303e 2783 433d 165e a73d
00000060: 7d7b 893e 7665 38bd d263 d93d 407f 753d
00000070: 169b b03d 46f5 e63d 1cd3 6b3e 272f 103d
00000080: e2b3 b8bd 1e45 4bbe 3285 12bd d278 2c3d
00000090: 4caa e53c 3f08 13be b6eb f8b9 a470 903e
000000a0: 0c53 3ebc b634 e6bd e267 6b3d da4e 9ebd
000000b0: 773f 30bc de19 e1bd 3a4d 00be 6114 1b3f
000000c0: 0910 873c efb4 61bd 3a09 ca3d 2564 12bd
000000d0: cb9d 003e 1316 033e 60fb 773c 269c 7c3e
000000e0: dce9 e73d b03a 9abe 0dc4 65bd f78f fd3c
000000f0: 7e77 a33e c533 643d 43c8 eabd 4af7 353e
00000100: d2b0 cfbd 65ca 66bd c3fd c33d e104 87bd
00000110: d6d6 e83e de76 9cbd 5fef 01bd 3cd2 dbbc
00000120: 2e11 e8bc 9275 5ebe cc0f 523d 3c15 013e
00000130: fea0 b3be d1ba 953c a2a2 a2bd c1d7 f53e
00000140: 7cec ef3a e51c 31bd cb1f a7bc 8a55 3d3c
00000150: 06ec a53c d98a e8bd 5cfb 23be b12c d03e
00000160: 04e5 eebc 408c 9bbd cdfd b0bc 8ef9 103e
00000170: 5083 c8bc 0bfb d23b 98b2 063e 98ce 9e3e
00000180: 46a6 1fbc b23f dd3d 92f5 8e3e cc9c 05bd
00000190: b4ee 1b3d 67e1 b9bd 1a20 0d3f 83de dbbb
000001a0: f5c7 acbc eb15 e0bd 6faa 76bd e773 263e
000001b0: 2c8a 20be cfe8 74be 5190 533d 9b5b 153e
000001c0: a3e3 163e 150d 003e 510a 09be 73b5 a73d
000001d0: fcc4 87bd 8038 d0bd c5a7 d13d 7b26 c63b
000001e0: 8d28 423e 123a 0cbe 19cc bd3b 67ba 17bc
000001f0: f9be 52be 509d 333e 9d7b d8bc 71a5 1abe
00000200: 5a80 1c3e 1ec0 0bbe 4969 a43e 8f95 d73e
00000210: 3e5b cd3d a497 843e f342 88be cdc0 e53d
00000220: 15aa bcbd fb35 a53c 7d11 8f3d 5abb 233f
00000230: 97f3 0c3d 44ee 273e 4258 0bbe b7d6 313d
00000240: c3a2 1a3c ded1 babd ed1d 4b3e b5d3 1e3f
00000250: b0f9 a43d 1824 923d 85cc 413d 3cad ef3d
00000260: af05 22bd a299 43bb 5ca4 fe3d 3922 0bbd
00000270: b5f6 1abe e0b6 60be aab9 5c3c fb10 bb3d
00000280: 28a8 f5be 53df 5f3d af74 a7bc 9b1b 87bd
00000290: ad01 083e 46e9 e7bd 3cc6 093e c68b ca3d
000002a0: bce4 75be 7cf2 193e 44e4 1abe 5053 0cbe
000002b0: 4091 fb3d 4a01 333e 1d3b 1fbd 0b31 84bd
000002c0: d4c6 633e ce80 8c3e 92ed b03c 4e51 af3d
000002d0: 5e52 d7be bae5 cdbd 44f2 c63d ccc4 ce3c
000002e0: bcd1 0d3d dd3b 11be 9b4e 993d 37e3 ce3d
000002f0: 4c52 b0bc a851 7b3d 783b 0d3e d78c 033e
00000300: 3f05 343d 531a 8a3b 6dd0 16be 535f 973e
00000310: 79b4 c5bc da88 bd3d 31f8 5b3e 5ad2 513e
00000320: 8d6c 453c 9abe 193d 0c53 b3bd 2c04 ec3e
00000330: 7112 f63c c256 1a3e 1681 a63f be32 d93c
00000340: 625d 213e dec1 00bd 8236 be3d 0b0c 1cbe
00000350: 73dd 0abd 313e e7be 30a1 0bbe b737 b2bd
00000360: 8455 203e 8fe9 653d d46f 863d 4933 24bb
00000370: 87e2 ccbd 6e19 dabe ccf3 1cbc 56d8 d43d
00000380: 2956 ba3d 9894 9ebe 9e14 e13d f167 7abc
00000390: fe95 3c3e f3ff 58bf 3a3a c1bd fb88 493d
000003a0: dc65 c63d 7bdb 4dbe af1f cfbd ff86 9fbe
000003b0: 1f58 c5bd ed02 963c 1e58 38be 680a 9ebe
000003c0: 0723 cc3d 5a55 48be 8004 a8bc 4bc3 44be
000003d0: 3cf6 8b3c d5d1 98be d532 bdbd d319 ed3d
000003e0: c3dd b9bc c2df 1fbe e87f 083e e98f c4be
000003f0: 9602 b43d b7be 543e 3603 813d 126e 8a3e

L1.bias f4 [128]
-0.6345759 -0.51767606 -0.27961493 -0.29600662 0.13729604 0.25205404 -0.09896478 0.14637227
0.17045787 -0.21037978 0.3421477 -0.21170284 -0.010433296 0.18319176 0.061947413 0.11140202
0.057870597 0.22841862 -0.066247076 -0.24396694 0.061558854 -0.091235675 -0.17295016 0.07401125
-0.10404623 0.10934976 0.26578605 -0.058929645 0.11410944 0.037035476 0.1753255 0.3068712
-0.35708413 -0.23881367 -0.26000336 -0.3353722 -0.22374487 -0.24806617 -0.023960277 -0.20076007
-0.28504205 0.07285499 -0.011238505 0.2762829 -0.47223422 -0.029321259 0.03899981 -0.07978837
-0.22147653 -0.016580807 0.0033232844 -0.20543061 -0.27374414 -0.033880632 0.035187896 0.22909012
-0.060973253 -0.31792367 -0.007260592 -0.019302748 -0.20751704 -0.24214233 -0.2836867 0.3849256
-0.031101966 0.018871201 -0.062749036 -0.080004595 0.28947356 0.12555787 -0.059512336 -0.068300426
-0.0651087 0.2339025 0.01344323 -0.0029175202 -0.07333217 0.03212156 0.054114055 0.03636905
0.22622561 -0.088209555 0.19074798 0.013345542 0.25335926 -0.15696226 0.0423169 -0.53813595
-0.33831444 0.04298566 0.057455942 0.04484477 -0.1472953 0.04261711 -0.37896952 0.16833952
-0.15215899 0.08866184 0.041124552 -0.34182334 -0.20365252 -0.020261407 -0.23190325 0.0109620625
0.009115666 0.56820226 -0.0026468108 -0.46827888 -0.36993787 -0.08045782 -0.22071381 0.039456043
-0.12442152 -0.061220516 -0.38958454 0.13192934 0.1390895 -0.14245138 0.31243324 0.030138351
-0.16601261 -0.1668297 -0.34597793 -0.077356085 0.012513231 0.1505845 -0.20617811 0.28777257
00000000: 9173 22bf 6b86 04bf b029 8fbe 2e8e 97be
00000010: 5597 0c3e 3a0d 813e 0cae cabd 9de2 153e
00000020: 828c 2e3e cc6d 57be fc2d af3e a1c8 58be
00000030: 6af0 2abc 9f96 3b3e 92bc 7d3d be26 e43d
00000040: b809 6d3d 92e6 693e 8cac 87bd 78d2 79be
00000050: 2325 7c3d c5d9 babd d919 31be 3693 973d
00000060: 3116 d5bd c4f2 df3d 1c15 883e 3660 71bd
00000070: 36b2 e93d 83b2 173d 8788 333e 391e 9d3e
00000080: bbd3 b6be 928b 74be 291f 85be e8b5 abbe
00000090: 601d 65be 0f05 7ebe 5848 c4bc 0c94 4dbe
000000a0: 08f1 91be ff34 953d b521 38bc f474 8d3e
000000b0: afc8 f1be 2333 f0bc 44be 1f3d 1668 a3bd
000000c0: beca 62be 79d4 87bc 76cb 593b 675c 52be
000000d0: 3128 8cbe 6bc6 0abd 2f21 103d 9a96 6a3e
000000e0: 17bf 79bd e4c6 a2be 43ea edbb cc20 9ebc
000000f0: 597f 54be 29f4 77be 623f 91be f814 c53e
00000100: 8dc9 febc c797 9a3c 9182 80bd 73d9 a3bd
00000110: e135 943e 3e92 003e 35c3 73bd 18e1 8bbd
00000120: b657 85bd 2384 6f3e fe40 5c3c de33 3fbb
00000130: 2d2f 96bd e691 033d b3a6 5d3d b7f7 143d
00000140: b0a7 673e 36a7 b4bd 7053 433e 43a7 5a3c
00000150: 4eb8 813e b7ba 20be 7c54 2d3d 47c3 09bf
00000160: 8d37 adbe bb11 303d ec56 6b3d 26af 373d
00000170: 94d4 16be 478f 2e3d 4b08 c2be 3261 2c3e
00000180: 91cf 1bbe 5794 b53d 3872 283d 7803 afbe
00000190: 498a 50be 40fb a5bc 0c78 6dbe 399a 333c
000001a0: e059 153c b475 113f 1e76 2dbb 40c2 efbe
000001b0: 7f68 bdbe 12c7 a4bd cd02 62be a99c 213d
000001c0: b6d0 febd 5dc2 7abd a077 c7be 7c18 073e
000001d0: 7a6d 0e3e c6de 11be 40f7 9f3e b4e4 f63c
000001e0: 36ff 29be 68d5 2abe 0524 b1be de6c 9ebd
000001f0: 4b04 4d3c d332 1a3e 5b20 53be ed56 933e

L2.weight f4 [128, 128]
0.00070824946 0.1105829 -0.030016523 0.0056107016 0.10519989 -0.011818357 -0.07606952 -0.021674918
0.0166708 -0.018479506 -0.05863132 0.22981054 0.06945507 -0.02292377 -0.09544112 0.011140713
0.00080893916 -0.11026727 -0.07983893 -0.005271166 -0.06304743 -0.107590176 -0.05859335 0.024916762
-0.1852326 -0.0839224 -0.0671885 0.008721451 0.07604102 -0.037736826 -0.11364193 -0.09870941
-0.082935885 0.13323717 -0.032422334 -0.13494357 -0.045601398 -0.010830681 0.018743116 -0.007109208
-0.06274807 0.051890913 -0.08795551 0.045161735 -0.043474525 -0.054658126 -0.11042776 0.026746664
0.003931377 -0.00817088 0.061146185 -0.018613594 0.0059089353 -0.06292682 -0.10752863 0.0051589655
0.044946797 -0.003247787 0.05595959 -6.39903e-05 0.010183285 -0.011697323 -0.049431052 0.070423596
-0.0019267207 0.084852345 0.023277467 -0.05598305 -0.13922435 -0.04479768 -0.031009303 -0.022862792
-0.07740806 -0.03289461 -0.053141743 0.070815876 -0.016938409 -0.04136664 -0.055796545 0.009867344
-0.027428962 -0.18284892 -0.0012595027 0.21620974 -0.009256734 0.06609385 0.06753895 -0.004060181
-0.19390216 -0.14014909 -0.13079453 -0.052868243 0.11683189 -0.037849594 -0.10888354 -0.0026815846
-0.028914616 -0.1330556 -0.081618264 -0.05648554 -0.020107415 -0.08290695 -0.028460301 -0.10202986
-0.037747104 -0.1520863 -0.04198415 0.1594607 -0.016969485 -0.017451834 0.06269037 -0.03251078
-0.064839505 0.044272866 0.0370741 0.027232105 0.013685581 0.041715223 -0.050346993 -0.10851325
0.010649372 -0.025509613 -0.14369626 -0.030711578 -0.077035636 -0.0057914774 0.08036231 -0.1662257
-0.09776777 -0.09017163 0.0202786 0.054398336 -0.101313375 -0.0061886054 -0.14911681 -0.031093124
-0.08383538 -0.0020718442 0.09250523 0.067400776 -0.06760442 -0.06927178 -0.06911188 -0.060885195
0.03845765 -0.13529964 -0.05152261 0.032639265 -0.111944444 -0.087619245 -0.0954257 0.01729595
0.035562485 0.015002669 -0.044276934 -0.013840486 -0.019295607 0.006774064 0.04576991 -0.06914195
-0.07119553 -0.00729184 -0.083660096 0.040503435 0.099040054 0.0073302016 0.009832374 0.00741133
0.035814926 -0.012957969 -0.05086529 -0.015042696 -0.06377294 0.091561906 -0.04926282 0.017977685
-0.0264876 -0.014449058 -0.08214607 0.014761202 -0.031164588 -0.020771572 0.03610661 -0.09491239
-0.021695774 -0.003953777 -0.0023781618 -0.067151785 -0.0013119489 0.024058733 -0.10321991 -0.025615338
0.050392374 -0.0028106044 -0.08396244 -0.024586594 -0.038644817 -0.065435894 0.024111629 -0.09008159
0.061264962 0.016793339 -0.051668733 0.07387198 -0.043229178 -0.02918619 0.021049527 0.033503875
0.008669242 -0.08489689 -0.108781435 -0.09652531 -0.051111482 -0.0672665 -0.0017605018 -0.07029401
-0.012677644 0.020880843 0.0036379604 0.04602806 -0.029322267 -0.016295318 -0.024332361 -0.099086665
0.020320918 0.048577867 -0.027672296 0.06464615 -0.10779046 -0.0684268 -0.04974857 0.016077265
-0.02458731 -0.057663262 0.011502896 0.013262292 -0.09433595 0.024806235 -0.093386285 -0.08772989
-0.03635448 -0.18065912 -0.05061115 -0.008264869 -0.070175335 -0.0482179 -0.09533695 -0.07093765
-0.07874964 -0.037282694 0.015412922 -8.0729245e-05 -0.06228674 -0.11354115 0.033886045 -0.048979614
00000000: d1a9 393a 4a79 e23d 36e5 f5bc fad9 b73b
00000010: 0a73 d73d c8a1 41bc 56ca 9bbd 998f b1bc
00000020: 3491 883c 5562 97bc 6527 70bd 7453 6b3e
00000030: 763e 8e3d a1ca bbbc a276 c3bd 8987 363c
00000040: fd0e 543a ced3 e1bd 9882 a3bd bfb9 acbb
00000050: 031f 81bd 3d58 dcbd 95ff 6fbd 3d1e cc3c
00000060: 9dad 3dbe 82df abbd 209a 89bd 6be4 0e3c
00000070: 65bb 9b3d ee91 1abd 1abd e8bd 2928 cabd
00000080: 4ada a9bd 536f 083e 48cd 04bd a62e 0abe
00000090: 88c8 3abd 2b73 31bc 2a8b 993c 5cf4 e8bb
000000a0: 0f82 80bd 918b 543d 0522 b4bd 83fb 383d
000000b0: 5812 32bd 33e1 5fbd f327 e2bd d21b db3c
000000c0: c8d2 803b 28df 05bc 6c74 7a3d 897b 98bc
000000d0: be9f c13b c7df 80bd f837 dcbd 8a0c a93b
000000e0: 221a 383d d3d8 54bb e235 653d 8832 86b8
000000f0: cbd7 263c 21a6 3fbc 3778 4abd 3f3a 903d
00000100: 058a fcba 11c7 ad3d 63b0 be3c 7c4e 65bd
00000110: d490 0ebe c67d 37bd 3907 febc c04a bbbc
00000120: 1e88 9ebd 80bc 06bd 28ab 59bd ea07 913d
00000130: 6bc2 8abc 1170 29bd eb8a 64bd a4aa 213c
00000140: b4b2 e0bc bf3c 3bbe e615 a5ba 1666 5d3e
00000150: 8ea9 17bc 365c 873d dc51 8a3d 440b 85bb
00000160: 4a8e 46be 3e83 0fbe 00ef 05be 5f8c 58bd
00000170: 8f45 ef3d 2d08 1bbd 55fe debd 86bd 2fbb
00000180: 58de ecbc ba3f 08be 7a27 a7bd 625d 67bd
00000190: 4eb8 a4bc 1ecb a9bd 9425 e9bc 08f5 d0bd
000001a0: b59c 1abd 83bc 1bbe 92f7 2bbd aa49 233e
000001b0: 9703 8bbc 26f7 8ebc cf63 803d 062a 05bd
000001c0: 93ca 84bd 7757 353d 03db 173d dd15 df3c
000001d0: 7d39 603c 95dd 2a3d a638 4ebd 323c debd
000001e0: b47a 2e3c 89f9 d0bc 1d25 13be d996 fbbc
000001f0: dcc4 9dbd 6fc6 bdbb ff94 a43d 1237 2abe
00000200: 783a c8bd e7ab b8bd 4e1f a63c cad0 5e3d
00000210: 637d cfbd c9c9 cabb 14b2 18be 02b7 febc
00000220: e2b1 abbd c7c7 07bb 6273 bd3d 6b09 8a3d
00000230: 3074 8abd 5dde 8dbd 888a 8dbd c162 79bd
00000240: c585 1d3d fd8b 0abe 5f09 53bd c0b0 053d
00000250: 2143 e5bd b871 b3bd 8d6e c3bd 3cb0 8d3c
00000260: f8a9 113d c1cd 753c bb5b 35bd 35c3 62bc
00000270: d211 9ebc f8f8 dd3b 3b79 3b3d 4b9a 8dbd
00000280: f6ce 91bd 63f0 eebb fc55 abbd eee6 253d
00000290: 83d5 ca3d 3032 f03b f717 213c beda f23b
000002a0: acb2 123d a94d 54bc 1f58 50bd a475 76bc
000002b0: 639b 82bd cf84 bb3d d0c7 49bd f045 933c
000002c0: 86fc d8bc bebb 6cbc 333c a8bd f8d8 713c
000002d0: e14c ffbc 2529 aabc 86e4 133d 6d61 c2bd
000002e0: 56bb b1bc af8e 81bb efda 1bbb e086 89bd
000002f0: b3f5 abba d216 c53c f664 d3bd 42d7 d1bc
00000300: 3c68 4e3d 1e32 38bb 80f4 abbd d369 c9bc
00000310: 074a 1ebd 4103 86bd c085 c53c b27c b8bd
00000320: f8f0 7a3d 2f92 893c 98a2 53bd 314a 973d
00000330: 1411 31bd e017 efbc 0f70 ac3c 5c3b 093d
00000340: 7009 0e3c 6cde adbd cdc8 debd 10af c5bd
00000350: 465a 51bd 05c3 89bd a3c0 e6ba 4ef6 8fbd
00000360: e5b5 4fbc 4d0e ab3c d96a 6e3b eb87 3c3d
00000370: 4035 f0bc c27d 85bc a954 c7bc f3ed cabd
00000380: 0e78 a63c 96f9 463d 03b1 e2bc 3365 843d
00000390: 3fc1 dcbd 5a23 8cbd 28c5 4bbd 78b4 833c
000003a0: 546b c9bc 5030 6cbd a576 3c3c 164a 593c
000003b0: 3533 c1bd 7236 cb3c 4f41 bfbd bbab b3bd
000003c0: 6fe8 14bd b4fe 38be a34d 4fbd 6069 07bc
000003d0: 16b8 8fbd 2280 45bd 0540 c3bd c247 91bd
000003e0: 7e47 a1bd bdb5 18bd 7b86 7c3c 2f4d a9b8
000003f0: 6120 7fbd 4388 e8bd 18cc 0a3d d99e 48bd

L2.bias f4 [128]
-0.05737641 -0.07718483 0.05222355 0.0016903786 -0.015240821 -0.010895502 -0.08167099 -0.11747117
-0.022618404 -0.08937123 0.07843206 -0.15433358 0.27056637 0.39799294 -0.15505797 -0.025166782
-0.12408656 -0.12681115 -0.17236145 0.024383228 -0.009200602 -0.150065 -0.0014552621 -0.014418617
0.014513499 0.018909872 -0.042774957 0.021854382 -0.00986716 0.019096293 0.029810537 -0.06445734
-0.1197729 -0.22055995 -0.0688269 -0.10606248 0.090253405 0.23519276 -0.0028763614 -0.038373403
-0.0958922 -0.09660229 0.03101831 -0.022535281 -0.01628684 0.098528266 0.04297702 -0.016376296
-0.012963295 -0.16175583 -0.07282349 0.019378744 -0.05640655 -0.14477009 0.3040363 -0.15793678
-0.03394451 -0.061940186 0.11085505 -0.08547669 -0.030257815 -0.17721218 0.009727232 -0.019464672
-0.16445194 -0.14616048 -0.12161327 0.1201718 -0.25606388 -0.02838034 -0.081493355 -0.07553733
-0.04358167 -0.09942725 -0.020497603 0.10521057 -0.057884574 0.066137806 0.05139285 0.03366255
0.074159145 -0.064717084 -0.07331476 -0.03113577 0.03486297 -0.08243874 -0.056366637 -0.06756621
-0.23588711 -0.024295883 -0.12620747 0.03672597 -0.1028576 0.04173235 -0.031007288 -0.058667406
-0.047304276 0.009925775 0.035376217 0.008635611 0.028463015 -0.09829954 0.12894681 0.063692234
-0.059057485 -0.09136913 0.029935878 -0.02263871 0.14071551 0.08486533 -0.023272084 0.05107285
-0.07107791 0.060395457 0.25212672 -0.13884489 -0.16946563 0.042818125 0.043544874 -0.060386576
-0.027609477 0.029803654 0.17621239 -0.1894927 -0.054797273 -0.03202332 0.03651653 -0.05609103
00000000: 8703 6bbd 1513 9ebd 5ce8 553d b28f dd3a
00000010: a3b4 79bc 0c83 32bc 1f43 a7bd ba94 f0bd
00000020: 3b4a b9bc 4308 b7bd fda0 a03d 9f09 1ebe
00000030: ad87 8a3e bbc5 cb3e 84c7 1ebe 912a cebc
00000040: 1821 febd c8da 01be 857f 30be 56bf c73c
00000050: 1fbe 16bc a4aa 19be 7ebe beba 103c 6cbc
00000060: 07ca 6d3c e0e8 9a3c cb34 2fbd f607 b33c
00000070: dea9 21bc d46f 9c3c 3a35 f43c 3602 84bd
00000080: 7f4b f5bd 78da 61be 1ef5 8cbd 4937 d9bd
00000090: c7d6 b83d 5fd6 703e 5681 3cbb 6e2d 1dbd
000000a0: 2163 c4bd 6cd7 c5bd 1c1a fe3c e99b b8bc
000000b0: fb6b 85bc 30c9 c93d ac08 303d 9527 86bc
000000c0: 0064 54bc 52a3 25be 7b24 95bd 2cc0 9e3c
000000d0: 8e0a 67bd 9c3e 14be a5aa 9b3e 2eba 21be
000000e0: 6609 0bbd feb4 7dbd f907 e33d 670e afbd
000000f0: 3ddf f7bc 1c77 35be f85e 1f3c 6074 9fbc
00000100: 1766 28be 18ab 15be 6110 f9bd a21c f63d
00000110: ce1a 83be e37d e8bc fde5 a6bd 51b3 9abd
00000120: b182 32bd 84a0 cbbd 97ea a7bc a478 d73d
00000130: 6018 6dbd 4273 873d 4f81 523d bee1 093d
00000140: c0e0 973d 648a 84bd 0d26 96bd 7110 ffbc
00000150: 79cc 0e3d a4d5 a8bd b4e0 66bd 2760 8abd
00000160: 648c 71be 2908 c7bc 883c 01be f96d 163d
00000170: 01a7 d2bd 8aef 2a3d ff02 febc 3c4d 70bd
00000180: 21c2 41bd b89f 223c a7e6 103d 617c 0d3c
00000190: 452b e93c 4551 c9bd a20a 043e 1371 823d
000001a0: 43e6 71bd bd1f bbbd 163c f53c d174 b9bc
000001b0: ba17 103e e0cd ad3d 19a5 bebc c431 513d
000001c0: 4c91 91bd 3a61 773d c116 813e 5b2d 0ebe
000001d0: 6688 2dbe 0f62 2f3d 1c5c 323d ea57 77bd
000001e0: 452d e2bc cb26 f43c 0571 343e 600a 42be
000001f0: 1b73 60bd e32a 03bd 5b92 153d b5bf 65bd

out1.weight f4 [1, 128]
-0.039982807 0.012457832 -0.004170424 -0.008620325 0.04168126 -0.009061174 0.0029189568 -0.004845614
0.028054126 -0.0040858244 0.035944104 -0.0038968497 -0.019050268 -0.02893781 -0.003547646 0.05561183
-0.0065539735 -0.009831895 -0.011473156 0.032773077 -0.0045432625 -0.0067594317 -0.020153882 0.0399255
-0.020301528 0.00046526213 0.0015174419 0.010543454 -0.036723547 -0.018460833 -0.0019906336 0.013394013
-0.0059880516 -0.0028381273 -0.014997595 0.0061581247 0.010990465 -0.017162511 0.021747002 -0.0024753509
-0.0015702768 -0.012148626 0.019379485 0.002082247 0.013543581 0.008416708 0.028290132 0.008108394
-0.009702518 0.012020295 0.0027717703 0.032687098 0.0066472017 -0.007417017 -0.009620292 0.006923981
-0.0038022047 0.030285204 0.009001033 -0.0048868116 -0.010445168 0.010963877 -0.03957706 0.004776568
-0.011534175 -0.0079055615 -0.014359435 0.0076837842 0.011815657 -0.0066769007 -0.0043579377 -0.00989848
0.012718044 -0.003147421 0.0022331192 0.020190341 -0.0029895527 -0.0071804198 -0.0019083634 -0.030541629
-0.05441949 -0.03702113 0.009086804 0.011631775 0.0040624547 -0.011241629 0.00289718 -0.0052375384
-0.0040621795 0.022172872 -0.0011228952 0.021097787 0.026195671 0.0034064266 -0.030489195 0.031622313
-0.015041894 0.00045719565 0.017506557 0.010867889 -0.014018162 -0.003910203 0.031490855 -0.02972378
0.017722236 -0.0064836578 0.014031088 0.00936163 0.012893115 0.039173573 0.060784243 0.028219301
0.0011709613 -0.0014958546 0.039759424 -0.0033151458 0.0027809595 0.029000582 0.012112992 0.007305178
1.2978032e-05 0.022706576 0.018327886 -0.004082069 0.020828366 -0.0023701002 0.0002006809 -0.0058963043
00000000: 03c5 23bd ef1b 4c3c 0da8 88bb 433c 0dbc
00000010: f8b9 2a3d 5175 14bc f84b 3f3b f5c7 9ebb
00000020: c4d1 e53c 61e2 85bb 203a 133d 4a62 7fbb
00000030: 4f0f 9cbc fc0e edbc a07f 68bb 3bc9 633d
00000040: b7c2 d6bb f515 21bc e7f9 3bbc 103d 063d
00000050: a6df 94bb 397e ddbb c119 a5bc ec88 233d
00000060: 644f a6bc 6dee f339 e7e4 c63a 74be 2c3c
00000070: 6e6b 16bd 2c3b 97bc 4a75 02bb 9072 5b3c
00000080: 6b37 c4bb e0ff 39bb 79b8 75bc 18ca c93b
00000090: 5a11 343c 6598 8cbc c526 b23c 7f39 22bb
000000a0: bfd1 cdba 080b 47bc bac1 9e3c 4f76 083b
000000b0: e5e5 5d3c 3be6 093c b5c0 e73c 12d9 043c
000000c0: 4ff7 1ebc c5f0 443c 97a6 353b e8e2 053d
000000d0: c5d0 d93b 730a f3bb 6e9e 1dbc 90e2 e23b
000000e0: 692e 79bb ad18 f83c 1279 133c 8c21 a0bb
000000f0: 3622 2bbc d5a1 333c 8e1b 22bd c284 9c3b
00000100: d6f9 3cbc 5486 01bc d643 6bbc 41c8 fb3b
00000110: 7596 413c e7c9 dabb 08cd 8ebb 3c2d 22bc
00000120: 585f 503c f644 4ebb 8659 123b 3766 a53c
00000130: 5fec 43bb ba49 ebbb 0d22 faba 7032 fabc
00000140: f9e6 5ebd 78a3 17bd d2e0 143c 3393 3e3c
00000150: 571e 853b cf2e 38bc 9dde 3d3b a89f abbb
00000160: 081c 85bb e2a3 b53c 1c2e 93ba 44d5 ac3c
00000170: 4e98 d63c 5b3e 5f3b 7ac4 f9bc 6686 013d
00000180: 4772 76bc c3b3 ef39 e969 8f3c 3b0f 323c
00000190: 6fac 65bc 2921 80bb 8efc 003d 497f f3bc
000001a0: 392e 913c dd74 d4bb a6e2 653c 8661 193c
000001b0: a53d 533c 7874 203d e6f8 783d 2a2c e73c
000001c0: f17a 993a 8d10 c4ba c7da 223d eb42 59bb
000001d0: c240 363b a192 ed3c 9275 463c 4660 ef3b
000001e0: 39bc 5937 2403 ba3c 5d24 963c e0c2 85bb
000001f0: 40a0 aa3c af53 1bbb de6d 5239 c935 c1bb

L3.weight f4 [128, 26]
0.0062163086 0.3108224 0.08971056 -0.046483006 -0.05510063 0.19299826 -0.0981084 0.022558749
0.11277616 0.123377554 -0.08145075 -0.02622794 -0.18857841 0.14638184 0.09006481 -0.035426293
0.20339642 0.25945827 0.13184504 0.06353742 -0.4677423 -0.20883301 -0.10476633 0.3011797
0.53222716 0.063551895 -0.15435971 0.12302354 -0.054755926 0.036197454 -0.14793192 -0.30587935
0.042996332 -0.1655327 0.05212144 0.40031305 -0.08929543 0.11352749 -0.23614448 -0.024022954
0.06437822 0.0966542 0.0126642855 0.22047251 0.05542089 -0.10055132 0.31322044 0.2867568
-0.08295215 -0.043782517 0.045504157 -0.019533595 0.042525705 0.4227391 0.060933102 0.0085332645
-0.10314502 0.0010176296 -0.065306686 0.10144864 0.008035986 0.35326988 0.05472252 -0.14539914
0.20778635 -0.4688166 -0.057207175 0.1096045 -0.33335304 0.39334568 -0.061964933 -0.053693466
0.19040613 -1.6370529 0.05126521 0.108232066 -0.012023055 0.36018875 0.2721966 -0.10113426
-0.09382139 -0.12727474 -0.32319227 -0.23863259 0.030379396 0.057143632 -0.014493975 -0.16668902
-0.16256113 0.17140268 -0.111869685 0.08065624 0.14140466 0.09176457 0.20244637 -0.18345346
-0.047579806 0.13933703 0.07996751 -0.12334437 0.036753554 -0.1522493 -0.5793167 0.23153052
0.30829102 -0.059887737 -0.0269053 0.17712435 -0.12981743 -0.29178497 -0.029857965 0.1278761
0.19346279 0.02621017 -0.020401599 0.06607432 0.11475628 -0.099874 0.08365211 0.1310867
0.41399166 -0.112020604 -0.11777748 -0.023326976 -0.07437763 -0.018701874 0.1302262 -0.027463384
0.76722187 0.21282093 -0.023069298 0.13929756 -0.025253544 -0.1988707 0.27191415 -0.1639756
0.028295511 0.0031925202 -0.16061345 0.0788722 0.106214985 -0.07464748 -0.06251606 -0.6692792
-0.101032965 -0.07820751 0.025554264 -0.22015415 -0.118032806 -0.054653134 -0.29306215 -0.3099417
0.10161825 -0.2376022 -0.22430287 -0.086273916 -0.12195928 0.4388822 -0.048651397 0.16350305
-0.05076127 -0.41286585 0.08401515 -0.17653829 -0.112097785 0.46820694 0.016392576 -0.14041476
0.10617738 -0.35473585 0.0228217 -0.27524504 0.10674253 0.05085352 -0.08294403 0.27937496
0.015717054 -0.055285532 0.12282724 0.2140541 -0.18568426 -0.22173911 -0.12517862 0.0024575684
-0.101240374 0.33725104 -0.14906824 0.09786516 0.11011525 0.10117486 0.115698114 0.56150746
0.04807484 0.33469066 -0.211944 -0.07882858 -0.0509036 0.12733957 0.20407295 0.6602138
0.12836152 -0.38990965 0.09401349 -0.5424209 -0.12911768 -0.3332779 0.46076688 -0.005704998
0.093928166 -0.13315524 -0.11623654 -0.0061027245 -0.3478696 -0.045784503 0.11461474 0.15667643
0.17149863 -0.0379457 -0.0032526609 0.19558232 -0.19003418 -0.24544816 0.010557595 0.14138319
-0.09812917 0.06108843 0.06672807 0.060978636 0.17267086 0.1474044 -0.059403326 -0.25371176
-0.35574126 0.10814562 0.1363502 -0.033889353 0.15170039 -0.04026849 0.4158992 0.14414863
-0.15198158 0.077980585 0.11190823 -0.21242142 -0.12629418 0.11171146 0.020309836 0.1003127
0.13107277 -0.1501337 -0.059168562 -0.18976238 0.044855602 -0.15127023 -0.54104114 0.35282794
00000000: 2db2 cb3b 1d24 9f3e 2cba b73d f764 3ebd
00000010: 33b1 61bd 56a1 453e 0fed c8bd 20cd b83c
00000020: 30f7 e63d 5fad fc3d a7cf a6bd fadb d6bc
00000030: b31a 41be 1fe5 153e e673 b83d 291b 11bd
00000040: 2747 503e b7d7 843e 6302 073e e81f 823d
00000050: eb7b efbe 52d8 55be bb8f d6bd 3a34 9a3e
00000060: 0a40 083f 7f27 823d 7910 1ebe c4f3 fb3d
00000070: c047 60bd c843 143d 777b 17be 389c 9cbe
00000080: ec1c 303d 6781 29be 4b7d 553d d5f5 cc3e
00000090: 86e0 b6bd 1a81 e83d dccf 71be c9cb c4bc
000000a0: bad8 833d a3f2 c53d dd7d 4f3c 8cc3 613e
000000b0: 0401 633d daed cdbd 6e5e a03e cad1 923e
000000c0: d1e2 a9bd 4c55 33bd 9162 3a3d eb04 a0bc
000000d0: 6f2f 2e3d 4271 d83e fd94 793d 1bcf 0b3c
000000e0: b23d d3bd fc61 853a 83bf 85bd 4ec4 cf3d
000000f0: 5ea9 033c cadf b43e b924 603d 83e3 14be
00000100: f2c5 543e bb08 f0be 1252 6abd 5378 e03d
00000110: 40ad aabe 9b64 c93e f1ce 7dbd aeed 5bbd
00000120: d3f9 423e f38a d1bf 78fb 513d c6a8 dd3d
00000130: 59fc 44bc a96a b83e 5a5d 8b3e 7b1f cfbd
00000140: 6e25 c0bd 4f54 02be 7579 a5be 1a5c 74be
00000150: 36de f83c 710f 6a3d 2378 6dbc 87b0 2abe
00000160: 6d76 26be 2f84 2f3e ef1b e5bd 192f a53d
00000170: 62cc 103e 10ef bb3d 1a4e 4f3e 39db 3bbe
00000180: 0be3 42bd 5eae 0e3e 02c6 a33d f99b fcbd
00000190: e58a 163d 3ee7 1bbe 194e 14bf 5616 6d3e
000001a0: 52d8 9d3e d84c 75bd 8168 dcbc 1660 353e
000001b0: dcee 04be d764 95be b198 f4bc f4f1 023e
000001c0: 1c1b 463e b6b6 d63c 4121 a7bc f951 873d
000001d0: 5705 eb3d bd8a ccbd cc51 ab3d 983b 063e
000001e0: b7f6 d33e 0f6b e5bd 5235 f1bd 3718 bfbc
000001f0: 4d53 98bd ac34 99bc 045a 053e e4fa e0bc
00000200: a768 443f bbed 593e d3fb bcbc 05a4 0e3e
00000210: 85e0 cebc c3a4 4bbe 5538 8b3e 38e9 27be
00000220: fdcb e73c 9a39 513b da77 24be bf87 a13d
00000230: 3e87 d93d c7e0 98bd 6c08 80bd e255 2bbf
00000240: 5fea cebd 422b a0bd 2d57 d13c 1770 61be
00000250: 2fbb f1bd f7db 5fbd 3e0c 96be aeb0 9ebe
00000260: 3b1d d03d fe4d 73be a7af 65be 61b0 b0bd
00000270: c9c5 f9bd 2bb5 e03e b046 47bd 586d 273e
00000280: 0deb 4fbd 2763 d3be 2310 ac3d 74c6 34be
00000290: 8693 e5bd d2b8 ef3e b949 863c e3c8 0fbe
000002a0: 8773 d93d f09f b5be 93f4 ba3c ebec 8cbe
000002b0: d49b da3d c84b 503d 8fde a9bd 3c0a 8f3e
000002c0: 0dc1 803c 1573 62bd d98c fb3d ff30 5b3e
000002d0: 0424 3ebe 940f 63be d32e 00be 280f 213b
000002e0: 1d57 cfbd 2bac ac3e 58a5 18be 876d c83d
000002f0: 1b84 e13d c434 cf3d 22f3 ec3d f4be 0f3f
00000300: 20ea 443d 935c ab3e d907 59be e170 a1bd
00000310: 4b80 50bd 4e65 023e 80f8 503e c603 293f
00000320: 3471 033e 3da2 c7be 258a c03d 19dc 0abf
00000330: 6d37 04be 67a3 aabe a3e9 eb3e fef0 babb
00000340: 695d c03d d959 08be 6c0d eebd 5df9 c7bb
00000350: f71b b2be 8888 3bbd 22bb ea3d c96f 203e
00000360: 569d 2f3e f36c 1bbd 982a 55bb bb46 483e
00000370: 5298 42be c356 7bbe c3f9 2c3c c1c6 103e
00000380: f2f7 c8bd dd37 7a3d baa8 883d bcc4 793d
00000390: a1d0 303e 2ef1 163e e750 73bd 82e6 81be
000003a0: b823 b6be 737b dd3d 639f 0b3e 90cf 0abd
000003b0: 5957 1b3e 92f0 24bd bdf0 d43e b39b 133e
000003c0: 0fa1 1bbe 49b4 9f3d 2430 e53d 0085 59be
000003d0: 4353 01be fac8 e43d d060 a63c bf70 cd3d
000003e0: f137 063e a6bc 19be bc5a 72bd 1251 42be
000003f0: 82ba 373d 95e6 1abe ac81 0abf dda5 b43e

L3.bias f4 [128]
-0.20896222 0.23450992 0.02506289 0.28202185 -0.23383917 -0.20471397 -0.37917432 0.21642396
-0.04266924 -0.38079646 -0.30826092 0.08415386 0.1656684 -0.019321864 0.026279172 0.5315433
0.046008337 -0.10429326 -0.23013316 -0.0031151755 -0.08047181 -0.19041364 -0.061198715 0.2157908
0.05391235 -0.1468882 0.04252862 -0.0059790113 0.260527 0.02233202 -0.2730993 -0.11973845
0.07392843 -0.13448082 -0.17183149 0.08163607 -0.21169813 0.1459227 0.020407509 -0.124899186
0.31815282 -0.0009600665 -0.12776335 -0.19795768 -0.14674681 0.1417578 -0.38711452 -0.110396855
-0.40157694 0.16269396 0.22386801 -0.28358197 -0.011427162 0.25831395 0.20962457 0.16044417
-0.07745142 -0.027881196 -0.123988725 -0.026771234 -0.060608726 0.10741471 -0.04579992 -0.03938696
-0.16174561 0.15852195 -0.05954478 -0.26991388 -0.0111103 -0.10231988 0.044549134 0.015285158
-0.12613358 -0.3382025 -0.08314566 -0.008178774 -0.29564077 -0.25408682 0.03227547 -0.22917858
-0.34192362 0.1250793 0.041156705 0.015479558 0.06413299 -0.2535793 -0.20135863 -0.36672392
0.10303183 -0.16098127 -0.07543877 -0.3621851 0.09791071 0.013061309 -0.014712773 -0.14337832
-0.18892594 0.061136298 0.12185993 0.022476492 0.10081476 -0.30673173 0.051763985 0.00051698094
-0.052463803 -0.28199494 0.09317482 0.17321463 0.19417462 0.03850829 -0.45643234 -0.5684734
0.008279134 0.1624058 -0.17956436 -0.06966362 -0.0062424117 0.11431154 0.022043793 -0.3538356
-0.17874998 -0.42913434 0.38075903 0.23786226 0.19559412 -0.040773857 0.044031296 -0.043270975
00000000: 31fa 55be 5e23 703e b150 cd3c 2b65 903e
00000010: 8973 6fbe 8aa0 51be 2323 c2be 3e9e 5d3e
00000020: f1c5 2ebd c1f7 c2be 60d4 9dbe dc58 ac3d
00000030: faa4 293e e348 9ebc 6b47 d73c 3913 083f
00000040: 3d73 3c3d b497 d5bd 07a8 6bbe f927 4cbb
00000050: 68ce a4bd cbfb 42be 81ab 7abd 43f8 5c3e
00000060: 32d3 5c3d dc69 16be 7e32 2e3d 95eb c3bb
00000070: cc63 853e a4f1 b63c acd3 8bbe 6f39 f5bd
00000080: ca67 973d 57b5 09be 98f4 2fbe d030 a73d
00000090: 65c7 58be c36c 153e a62d a73c 25cb ffbd
000000a0: ede4 a23e f9ac 7bba 65d4 02be 6bb5 4abe
000000b0: cc44 16be f528 113e e033 c6be bf17 e2bd
000000c0: 7e9b cdbe 3f99 263e a83d 653e a831 91be
000000d0: fe38 3bbc ba41 843e d3a7 563e 7a4b 243e
000000e0: da9e 9ebd 1b67 e4bc cded fdbd 594f dbbc
000000f0: db40 78bd 3efc db3d b298 3bbd 3954 21bd
00000100: a4a0 25be 9453 223e 3ae5 73bd 2732 8abe
00000110: fa07 36bc 168d d1bd 2779 363d 996e 7a3c
00000120: 2929 01be e128 adbe 4648 aabd 4400 06bc
00000130: 3a5e 97be ab17 82be 4933 043d caad 6abe
00000140: 9d10 afbe ca14 003e ef93 283d f99d 7d3c
00000150: 2858 833d 25d5 81be f530 4ebe 3dc3 bbbe
00000160: 5a02 d33d 46d8 24be a47f 9abd 5370 b9be
00000170: 6985 c83d 1aff 553c d80d 71bc c4d1 12be
00000180: cd75 41be 0e6a 7a3d b391 f93d 9f20 b83c
00000190: f877 ce3d f10b 9dbe 7906 543d 0186 073a
000001a0: 49e4 56bd a461 90be 71d2 be3d 2d5f 313e
000001b0: b6d5 463e deba 1d3d 80b1 e9be 7987 11bf
000001c0: 34a5 073c b54d 263e b8df 37be cdab 8ebd
000001d0: 258d ccbb 2b1c ea3d 2f95 b43c f129 b5be
000001e0: 3c0a 37be 7fb7 dbbe d9f2 c23e 2a92 733e
000001f0: d349 483e 7d02 27bd 295a 343d e83c 31bd

L4.weight f4 [128, 128]
-0.08020619 -0.014721014 0.013113833 -0.047185116 0.013562528 0.0012066738 -0.07231705 0.015297706
0.011076117 -0.0035691923 -0.025010705 0.0151884295 -0.08976953 -0.039629202 0.01317981 0.07285208
-0.022264441 -0.07753171 0.0028207991 -0.023312476 -0.025381275 -0.08654704 -0.06594933 0.05814899
-0.015268395 -0.09738919 -0.11763081 0.047750875 -0.044749666 -0.06811253 -0.015822621 0.05636722
0.030489344 -0.00066945894 0.051671643 0.012301557 -0.053946666 -0.009190446 -0.12934192 0.05740167
0.012065315 -0.023552528 -0.0061924523 0.016098842 -0.0107350135 0.018400902 -0.018101772 -0.050352123
-0.025165346 0.03060737 -0.017081654 -0.09420905 0.028664274 -0.04736929 0.0351705 -0.049110293
-0.029076673 -0.02717479 -0.0630287 0.0065387255 0.038077272 -0.040090628 -0.0058958656 -0.08253517
-0.050101027 0.06834189 -0.095131084 0.014875558 -0.012304725 -0.014427894 -0.04413997 -0.040360205
0.0139621915 -0.013691945 -0.11531411 -0.05730267 -0.017278189 -0.019173367 -0.03299772 0.06875174
-0.020414628 -0.06086437 -0.03053547 -0.044704918 -0.07234553 -0.15041602 0.018675787 -0.018951455
0.00633741 0.045930643 -0.017317109 0.07223112 -0.0027034336 0.006190358 -0.0074903443 0.0022248353
0.01125976 -0.037639588 0.016580833 -0.0048428425 -0.061759397 -0.064439416 0.027740404 -0.008101383
0.07485411 0.042832073 -0.022411862 0.02756353 0.037205126 -0.010262988 -0.078472406 -0.084135056
-0.01702429 -0.044626337 0.039550535 0.021401446 0.021648169 0.030887479 -0.05451907 -0.018482467
-0.029076291 -0.030598922 0.01357639 -0.021130485 0.007102393 -0.0024073354 0.0563151 -0.03712003
-0.02095378 -0.08712298 -0.010783101 -0.0252628 0.019798066 -0.057747353 -0.05451944 -0.0886988
-0.073677234 -0.16742888 -0.043566093 -0.014200549 -0.0588547 0.06461325 -0.061836902 -0.10999659
-0.034618158 0.041961614 0.033761993 -0.09954446 -0.0717359 -0.064631745 -0.057317343 -0.05556287
-0.03774341 0.07723168 0.028290391 -0.041108843 0.037065275 -0.023897571 -0.08061613 -0.05519189
0.054514315 0.0022024948 0.009423313 -0.095442265 -0.08742667 -0.12778206 0.02855234 -0.06461368
-0.014633897 0.06926372 0.022601102 0.023561921 -0.06400813 0.0325769 -0.079203404 -0.057398282
-0.075147316 0.07320557 -0.007403461 -0.065817885 -0.019921998 -0.06028765 -0.026342796 -0.04687783
-0.015316387 -0.009348676 0.0647932 -0.07082305 0.045646288 -0.10343324 -0.099684924 0.044873293
0.021741282 -0.056304432 -0.08722516 -0.036321554 0.04673943 0.000262342 -0.0545254 -0.046680544
0.031595908 0.011686267 0.0477531 0.061325714 -0.064700276 -0.03279527 -0.04070894 -0.09606826
-0.069801226 -0.0015138444 -0.111265235 0.07932301 0.080725506 -0.042849056 -0.1428401 -0.0073663928
0.014185175 -0.037288215 0.053548854 0.030589653 0.03229963 0.021935068 -0.060506195 0.027162267
-0.09465678 0.018934984 -0.047381286 -0.016732832 -0.060678292 -0.053674523 0.041906986 0.02325833
-0.07338511 0.052656192 -0.0017801236 -0.011606038 -0.008111564 0.024991678 0.045631047 -0.13799277
-0.059844214 -0.07916386 -0.058646522 -0.05767701 0.031053757 0.018547859 -0.025536587 0.056641877
-0.07913064 0.02879338 -0.1267653 0.03902427 -0.022180831 -0.003522378 -0.02893677 -0.07471803
00000000: 2543 a4bd 6830 71bc 67db 563c 2e45 41bd
00000010: 5e35 5e3c 4129 9e3a f61a 94bd 3ba3 7a3c
00000020: 9a78 353c 1ce9 69bb 40e3 ccbc e4d8 783c
00000030: 16d9 b7bd 3b52 22bd 21f0 573c 7933 953d
00000040: eb63 b6bc f2c8 9ebd 28dd 383b cef9 bebc
00000050: 64ec cfbc 933f b1bd 7110 87bd a32d 6e3d
00000060: 4a28 7abc fc73 c7bd 6ce8 f0bd 6c96 433d
00000070: 6d4b 37bd 957e 8bbd 719e 81bc 50e1 663d
00000080: cac4 f93c a17e 2fba a5a5 533d 788c 493c
00000090: 2ef7 5cbd 8693 16bc 3572 04be 031e 6b3d
000000a0: 99ad 453c 3bf1 c0bc 0eea cabb b8e1 833c
000000b0: e9e1 2fbc 7dbd 963c 2b4a 94bc 073e 4ebd
000000c0: 8e27 cebc 4fbc fa3c d3ee 8bbc adf0 c0bd
000000d0: 57d1 ea3c 4d06 42bd f10e 103d e027 49bd
000000e0: 3432 eebc aa9d debc 3115 81bd ce42 d63b
000000f0: eaf6 1b3d 1236 24bd 1b32 c1bb 3308 a9bd
00000100: bc36 4dbd d5f6 8b3d 16d4 c2bd 9db8 733c
00000110: c299 49bc f962 6cbc 1dcc 34bd be50 25bd
00000120: adc1 643c 2e54 60bc ce29 ecbd 34b6 6abd
00000130: fd8a 8dbc 7711 9dbc 9e28 07bd b6cd 8c3d
00000140: 943c a7bc eb4c 79bd 8625 fabc 811c 37bd
00000150: e529 94bd a806 1abe f7fd 983c 1540 9bbc
00000160: 0caa cf3b c521 3c3d 9cdc 8dbc e9ed 933d
00000170: 172c 31bb 7dd8 ca3b 9071 f5bb 8bce 113b
00000180: db7a 383c f82b 1abd 87d4 873c b5b0 9ebb
00000190: 6cf7 7cbd d0f8 83bd d83f e33c aabb 04bc
000001a0: 1d4d 993d af70 2f3d 1599 b7bc e9cc e13c
000001b0: 6764 183d 1726 28bc 24b6 a0bd 004f acbd
000001c0: 8676 8bbc 1bca 36bd beff 213d 1652 af3c
000001d0: 8057 b13c bd07 fd3c 634f 5fbd 8b68 97bc
000001e0: 6731 eebc 97aa fabc 826f 5e3c d719 adbc
000001f0: 31bb e83b 63c4 1dbb aaaa 663d 2c0b 18bd
00000200: 43a7 abbc 886d b2bd 9bab 30bc eef3 cebc
00000210: 8e2f a23c 7d88 6cbd c74f 5fbd b7a7 b5bd
00000220: 17e4 96bd 7a72 2bbe 5c72 32bd 6ba9 68bc
00000230: a011 71bd f453 843d b148 7dbd e445 e1bd
00000240: c5cb 0dbd f1df 2b3d 044a 0a3d f7dd cbbd
00000250: 46ea 92bd a65d 84bd 97c5 6abd e495 63bd
00000260: d598 1abd a52b 9e3d 40c1 e73c bf61 28bd
00000270: c2d1 173d d7c4 c3bc 121a a5bd e410 62bd
00000280: 674a 5f3d bb57 103b 3d64 1a3c 3c77 c3bd
00000290: c10c b3bd 4dd9 02be 99e6 e93c 2d54 84bd
000002a0: 03c3 6fbc 23da 8d3d f225 b93c ee04 c13c
000002b0: b216 83bd 5b6f 053d 6535 a2bd 761a 6bbd
000002c0: d6e6 99bd cdec 953d bb98 f2bb 87cb 86bd
000002d0: 7533 a3bc 2ff0 76bd d9cc d7bc f802 40bd
000002e0: 95f1 7abc 302b 19bc 4cb2 843d ad0b 91bd
000002f0: 9af7 3a3d ced4 d3bd 9c27 ccbd 0fcd 373d
00000300: c61a b23c 7a9f 66bd 1ba3 b2bd e9c5 14bd
00000310: d871 3f3d f28a 8939 0756 5fbd 1934 3fbd
00000320: b66a 013d c277 3f3c c198 433d ac30 7b3d
00000330: 9481 84bd 5554 06bd 6bbe 26bd 70bf c4bd
00000340: f2f3 8ebd 306c c6ba 07df e3bd 1a74 a23d
00000350: 6a53 a53d 7e82 2fbd ad44 12be c861 f1bb
00000360: f068 683c 87bb 18bd 0b56 5b3d 2797 fa3c
00000370: 9e4c 043d 2cb1 b33c 58d5 77bd 6783 de3c
00000380: 6adb c1bd 8a1d 9b3c e112 42bd 4b13 89bc
00000390: cd89 78bd d1d9 5bbd a9a6 2b3d 4188 be3c
000003a0: ef4a 96bd 05ae 573d 0953 e9ba 4027 3ebc
000003b0: 5ee6 04bc 59bb cc3c 9fe7 3a3d fa4d 0dbe
000003c0: 351f 75bd a920 a2bd 5637 70bd ba3e 6cbd
000003d0: 7364 fe3c aef1 973c 1b32 d1bc 5001 683d
000003e0: 3f0f a2bd 18e0 eb3c c3ce 01be ead7 1f3d
000003f0: 93b4 b5bc b2d7 66bb ce0c edbc c405 99bd

L4.bias f4 [128]
-0.013960031 0.06447856 0.024927486 0.022975089 -0.3138444 -0.02299761 -0.10628169 -0.0062953774
0.3981327 -0.06772501 -0.08574805 0.29566836 -0.070224196 0.16384049 0.04497332 0.43876404
-0.12802926 -0.0828834 -0.13156106 0.037905842 -0.0394783 -0.06404889 -0.13934994 -0.060521517
0.048861116 -0.0020813833 -0.04083076 -0.04763005 0.087577805 0.009330412 0.041088518 -0.055884115
-0.044277057 -0.04588996 0.17711711 0.020888139 0.062136848 0.21950503 -0.14881554 -0.044372786
0.017605651 0.048420537 -0.100417145 0.034278393 -0.12168926 -0.14309481 -0.024657812 -0.14822277
-0.040062483 0.022916565 -0.010927708 -0.08371973 -0.0021054363 0.04485726 -0.11245608 -0.0038742921
0.05420657 -0.06840599 -0.060340267 -0.12391821 0.10971502 -0.09971815 0.28863394 -0.012593198
0.00029764854 -0.048475135 -0.029628053 0.047713764 0.12016456 -0.036634114 -0.10137215 0.0029257932
-0.080743186 -0.127118 0.0039463704 0.020541867 0.07242065 -0.045157406 -0.12713036 -0.005446008
-0.010299686 -0.13991629 0.22772372 0.09699197 0.005241295 -0.19380799 -0.0445782 -0.04935695
-0.028622404 0.03678552 -0.04342533 -0.00079452497 -0.012910091 -0.060235444 -0.22739519 -0.22241758
0.032420583 -0.026384262 0.00527874 0.0466023 -0.13066632 -0.15710004 0.04458737 -0.054523684
0.025330303 -0.056731287 -0.10943604 0.046616405 -0.084293306 -0.009021068 0.033891607 -0.06143366
-0.077608846 -0.047700115 0.11162268 -0.29473987 -0.057715673 -0.08612354 -0.15287519 0.02844701
-0.18283823 -0.023288207 -0.0065748002 0.07872559 -0.0115548065 -0.010266447 -0.039250415 -0.08167792
00000000: 9db8 64bc 560d 843d ba34 cc3c 4136 bc3c
00000010: 37b0 a0be 7c65 bcbc 37aa d9bd 7449 cebb
00000020: 0dd8 cb3e 69b3 8abd ac9c afbd d861 973e
00000030: b4d1 8fbd cdc5 273e f235 383d aea5 e03e
00000040: 1a1a 03be c6be a9bd f1b7 06be 2843 1b3d
00000050: ffb3 21bd 102c 83bd c0b1 0ebe 69e5 77bd
00000060: 9822 483d d167 08bb 283e 27bd ba17 43bd
00000070: fe5b b33d 96de 183c 6f4c 283d bee6 64bd
00000080: dc5b 35bd 1cf7 3bbd 305e 353e 9a1d ab3c
00000090: 3583 7e3d edc5 603e 1a63 18be 3dc0 35bd
000000a0: ba39 903c 9d54 463d 81a7 cdbd 8067 0c3d
000000b0: 3838 f9bd 7287 12be 2eff c9bc b6c7 17be
000000c0: 8f18 24bd 85bb bb3c 210a 33bc 4075 abbd
000000d0: 5cfb 09bb 3fbc 373d 604f e6bd d6e7 7dbb
000000e0: b507 5e3d 7118 8cbd 5b27 77bd d5c8 fdbd
000000f0: 45b2 e03d 0839 ccbd d4c7 933e b353 4ebc
00000100: b60d 9c39 dd8d 46bd 88b6 f2bc 826f 433d
00000110: d618 f63d a70d 16bd 349c cfbd aabe 3f3b
00000120: af5c a5bd 392b 02be 8e50 813b 6b47 a83c
00000130: 4751 943d f9f6 38bd 762e 02be 6d74 b2bb
00000140: 04c0 28bc 3746 0fbe 6830 693e baa3 c63d
00000150: 2bbf ab3b 9a75 46be a197 36bd 832a 4abd
00000160: 8879 eabc 6aac 163d c2de 31bd ab47 50ba
00000170: d984 53bc 71b9 76bd 49da 68be 6fc1 63be
00000180: 72cb 043d cf23 d8bc 48f9 ac3b 0ee2 3e3d
00000190: 64cd 05be d5de 20be 3fa1 363d 3a54 5fbd
000001a0: 7f81 cf3c 115f 68bd 0120 e0bd d8f0 3e3d
000001b0: f8a1 acbd 1acd 13bc edd1 0a3d dda1 7bbd
000001c0: 63f1 9ebd 3261 43bd 6f9a e43d 25e8 96be
000001d0: 4567 6cbd 8a61 b0bd 508b 1cbe b409 e93c
000001e0: f239 3bbe e9c6 bebc 6c71 d7bb e23a a13d
000001f0: 5f50 3dbc 9a34 28bc 0bc5 20bd c146 a7bd

out2.weight f4 [1, 128]
-0.0023805907 0.016478093 -0.006692904 -0.009289362 0.0019968413 -0.029682769 -0.0018659243 -0.015836982
0.027721899 -0.0021450236 -0.011078041 -0.016089242 0.011498243 0.058118206 -0.003255391 -0.010748886
0.006768088 0.0060171857 0.022626506 0.014494685 0.01905222 0.008156713 0.028631458 -0.03393211
0.008469843 -0.025391571 -0.019663712 -0.010291037 0.011305315 0.019868365 -0.028085254 0.026707632
-0.008722024 -0.00882451 0.03013555 0.025897183 -0.024960408 0.008993178 -0.046211887 -0.02622565
-0.01335119 0.0038570105 0.048360173 -0.0122027295 -0.0025804422 -0.02781122 0.0115545215 0.001949503
-0.0038729014 0.03830848 0.0027045081 -0.00071951904 0.00042884433 -0.0028068318 0.0019603304 -0.004559529
0.029637277 0.013244678 -0.0004051988 0.007259279 0.07722621 -0.0035411697 -0.031342477 0.022234293
-0.06055752 0.0026866293 -0.01360613 0.006979191 0.023513572 -0.03003223 0.016247166 0.0069008768
-0.009683785 0.05514726 0.02870883 -0.00087371364 0.006255458 -0.0014647401 0.032422084 -0.012060271
0.002501401 0.0029633688 -0.023003003 -0.00034323274 0.005097388 -0.011040509 -0.014462193 0.01045821
-0.014014378 0.016289383 0.002217283 -0.029708343 -0.008201686 0.011781319 -0.008145006 -0.022434803
0.0034530237 0.004415577 -0.041794028 0.03447122 -0.011760531 -0.0037854696 0.034956075 -0.040476397
-0.0034369782 -0.003266636 -0.0071570436 0.0044691497 0.0013632586 -0.007334874 0.006685917 -0.016975837
-0.003502186 -0.0016101829 -0.008146571 0.02542412 0.0052099247 0.0106527 0.0068081627 0.014024531
-0.010135357 -0.0053393417 0.00084954815 0.038235877 0.017533688 -0.0039863656 -0.0006066463 -0.0007783793
00000000: af03 1cbb 11fd 863c 2650 dbbb 6832 18bc
00000010: 70dd 023b 4729 f3bc 0892 f4ba 8fbc 81bc
00000020: 0919 e33c 8693 0cbb ac80 35bc 96cd 83bc
00000030: 2063 3c3c 5b0d 6e3d 6658 55bb 181c 30bc
00000040: d6c6 dd3b d02b c53b 395b b93c 1e7b 6d3c
00000050: 6713 9c3c bca3 053c 858c ea3c 65fc 0abd
00000060: 19c5 0a3c fc01 d0bc cb15 a1bc bd9b 28bc
00000070: ee39 393c fbc2 a23c 0c13 e6bc f7c9 da3c
00000080: d2e6 0ebc ad94 10bc d4de f63c 5426 d43c
00000090: c579 ccbc 1f58 133c ad48 3dbd 2dd7 d6bc
000000a0: f3be 5abc e6c5 7c3b 5115 463d f5ed 47bc
000000b0: a31c 29bb 5bd4 e3bc 2d4f 3d3c 7786 ff3a
000000c0: 81d0 7dbb 5ae9 1c3d 1e3e 313b 1b9e 3cba
000000d0: 83d6 e039 d3f2 37bb e378 003b 1a68 95bb
000000e0: e0c9 f23c 3500 593c dd70 d4b9 3fdf ed3b
000000f0: c628 9e3d f812 68bb f860 00bd b124 b63c
00000100: 290b 78bd 2912 303b 3fec 5ebc b3b1 e43b
00000110: 899f c03c 2706 f6bc c718 853c c020 e23b
00000120: bda8 1ebc 18e2 613d c82e eb3c ee09 65ba
00000130: 96fa cc3b 86fc bfba 05cd 043d 7198 45bc
00000140: 8bee 233b 1435 423b cb70 bcbc ebf3 b3b9
00000150: fd07 a73b 40e3 34bc d5f2 6cbc e958 2b3c
00000160: 909c 65bc 5071 853c d64f 113b e95e f3bc
00000170: 5d60 06bc 6f06 413c a272 05bc 31c9 b7bc
00000180: 204c 623b 8bb0 903b 3730 2bbd b231 0d3d
00000190: 3eaf 40bc a415 78bb 1a2e 0f3d 94ca 25bd
000001a0: ed3e 61bb 0f15 56bb a285 eabb f271 923b
000001b0: 5eaf b23a 6259 f0bb 8915 db3b e910 8bbc
000001c0: ee84 65bb c60c d3ba 3279 05bc 3e46 d03c
000001d0: 04b8 aa3b aa88 2e3c 0217 df3b 25c7 653c
000001e0: c50e 26bc a5f5 aebb 36b4 5e3a 399d 1c3d
000001f0: cfa2 8f3c 0fa0 82bb 5807 1fba 270c 4cba
